leafify-master/app/src/main/ml/model.tflite (tflite, 919504 bytes, 10 tensors)

sequential/conv2d_2/BiasAdd;sequential/conv2d_2/Conv2D;sequential/conv2d_2/BiasAdd/ReadVariableOp/resource f4 [22]
-0.0052737123 -0.059945904 -0.03298588 0.016504038 -0.026592739 -0.018218154 0.024973579 0.015877843
0.035779815 0.040657174 0.006604755 0.018810814 -0.016207887 0.02822147 0.024355413 -0.016640538
-0.016290452 -0.027145237 0.018992323 0.025029501 -0.03943871 0.036055077
00000000: 1bcf acbb d689 75bd 341c 07bd 7a33 873c
00000010: 04d9 d9bc 3d3e 95bc 6495 cc3c 4012 823c
00000020: db8d 123d 2388 263d b36c d83b 2319 9a3c
00000030: 67c6 84bc b630 e73c 0185 c73c bd51 88bc
00000040: 8e73 85bc b05f debc ca95 9b3c ab0a cd3c
00000050: 7c8a 21bd 7dae 133d

sequential/conv2d_1/BiasAdd;sequential/conv2d_1/Conv2D;sequential/conv2d_1/BiasAdd/ReadVariableOp/resource f4 [20]
-0.03338636 0.025325468 -0.036553983 0.0007210633 -0.0067879637 -0.02502424 0.033366054 0.033001278
-0.053446207 0.014944281 -0.019160124 0.013484001 0.028452227 -0.010763898 -0.0142487 -0.00054987107
0.0070218057 -0.009519443 0.014890458 0.021494038
00000000: 23c0 08bd 5b77 cf3c a1b9 15bd bd05 3d3a
00000010: 916d debb a3ff ccbc d8aa 083d 592c 073d
00000020: 69ea 5abd dcd8 743c b1f5 9cbc 00ec 5c3c
00000030: a514 e93c 0f5b 30bc 6173 69bc 3925 10ba
00000040: 2d17 e63b 70f7 1bbc 1cf7 733c 4414 b03c

sequential/conv2d/BiasAdd;sequential/conv2d/Conv2D;sequential/conv2d/BiasAdd/ReadVariableOp/resource f4 [10]
0.018018581 0.0029925052 0.01946906 -0.01828349 -0.0082877735 -0.008734329 0.005593231 0.0023550603
-0.010879179 -0.019743424
00000000: b49b 933c e81d 443b 947d 9f3c 42c7 95bc
00000010: 71c9 07bc 6e1a 0fbc 6c47 b73b 5b57 1a3b
00000020: 963e 32bc f6bc a1bc

sequential/conv2d_2/Conv2D f4 [22, 3, 3, 20]
0.03335274 0.032501798 0.053498328 0.0065769306 -0.09288608 0.02358882 -0.084878005 -0.036164813
-0.059203316 -0.08505404 -0.09753733 -0.07143824 -0.018084388 0.042322364 0.028227808 -0.12121087
0.018756393 -0.111617304 0.09723587 -0.059997138 0.040555168 0.01747745 -0.069169 0.07113151
0.019001462 -0.026837608 -0.114381626 -0.11770164 0.04647076 0.078936026 0.094325215 -0.100199655
-0.06494711 0.07548154 -0.01857907 -0.03791749 0.080913335 0.043573905 0.08625426 0.0082351295
-0.076842956 0.11158989 0.101533994 -0.05825338 -0.12088491 0.041350834 0.095979586 0.022336848
-0.118094 0.12671547 0.119082436 0.027998056 0.07554497 -0.015183601 -0.026356582 0.022214876
-0.09633139 -0.12478994 -0.023451768 0.047678225 -0.06365625 -0.04189593 0.047852207 0.06700237
0.11243406 0.04631931 0.020864567 -0.032045804 0.008833504 -0.1173353 -0.029474884 -0.105032966
0.094309665 0.015525828 0.0627241 -0.00073685485 0.021718763 0.106510974 -0.06427458 -0.048792973
-0.063047945 0.009515703 0.09440651 0.00072748837 -0.029325306 0.11867706 0.09635887 0.025701934
-0.11658707 0.0168367 -0.10538708 -0.05670517 -0.0997422 -0.03169665 0.09947944 0.033947352
-0.048764046 0.04470473 -0.07539419 0.10655767 -0.10145971 0.072125144 -0.13259916 -0.014360588
0.010839524 -0.10047966 0.09543699 0.024514362 -0.083341815 0.09058369 0.06317465 -0.028905924
-0.05956372 -0.08932195 0.1096683 -0.061312918 0.10190991 -0.098120704 -0.07356579 -0.04445545
0.019239886 0.013930138 -0.01700883 -0.049483623 0.069879055 -0.0949253 0.008550819 0.08590086
-0.049685776 0.019195864 -0.047102105 0.08875324 0.020556584 0.07820188 -0.044649504 -0.05846563
-0.08835223 0.055395186 0.102088675 0.0016746378 0.027380232 0.019719847 -0.015062869 -0.07526322
0.008420096 0.044130776 0.002482006 -0.0002763099 -0.022902643 0.11880621 0.056953095 0.02478382
0.0036160285 0.010550876 -0.100104064 0.079587586 0.04187425 -0.11462176 0.1104926 -0.0027072441
-0.008240054 -0.057971474 0.054166816 0.029277382 -0.07012812 0.058284722 -0.053206284 -0.044022992
-0.072252706 -0.06880591 0.013533758 -0.110899344 -0.028604126 -0.060315702 0.1194209 0.12248353
0.10718887 -0.04730257 -0.0154071525 0.04818139 0.11488867 -0.020904943 0.077539936 -0.029744133
-0.11060557 -0.08488466 -0.112702385 0.029532744 0.09940996 -0.04305959 -0.100602165 -0.0487121
-0.114263564 -0.038143452 -0.06563777 0.03053211 -0.04704915 -0.06571447 0.049254484 -0.05031725
0.11786201 0.11301115 0.084899314 0.08710853 0.07204273 -0.070615984 -0.11491335 -0.03608213
0.015351371 -0.02948081 0.1007998 -0.032702915 0.041925404 0.13696319 -0.052964322 -0.037959296
-0.10259048 0.10992485 0.10738236 -0.022780525 -0.0885819 0.027331917 -0.11114225 -0.10154038
0.039859287 -0.06128037 0.07495248 -0.007207202 -0.026562756 -0.056529954 0.078274816 0.11464064
-0.10180761 0.004509574 -0.004223097 -0.09084361 -0.020108873 -0.12295967 0.07402086 0.07168201
0.07108067 0.059818435 0.0723124 -0.08608779 0.11104883 0.00045899473 -0.0055354093 -0.035967756
0.039429344 -0.067482404 -0.03544836 -0.123664156 -0.04736706 -0.1158401 0.038573425 -0.062001225
00000000: e29c 083d 9b20 053d 1021 5b3d 4b83 d73b
00000010: 0f3b bebd 573d c13c 85d4 adbd 8e21 14bd
00000020: 2d7f 72bd d030 aebd a7c1 c7bd 364e 92bd
00000030: b625 94bc 375a 2d3d 013e e73c 683d f8bd
00000040: 02a7 993c 9d97 e4bd 9a23 c73d 8fbf 75bd
00000050: 2d1d 263d df2c 8f3c 7aa8 8dbd 66ad 913d
00000060: f4a8 9b3c 8bda dbbc ea40 eabd 8f0d f1bd
00000070: 2058 3e3d 36a9 a13d 942d c13d 7a35 cdbd
00000080: fe02 85bd 1196 9a3d 2233 98bc 5f4f 1bbd
00000090: e4b5 a53d 8d7a 323d 13a6 b03d a3ec 063c
000000a0: d75f 9dbd 3e89 e43d 0ef1 cf3d 199b 6ebd
000000b0: 8292 f7bd 7e5f 293d f290 c43d c4fb b63c
000000c0: 44db f1bd b3c1 013e 7ee1 f33d 2e5c e53c
000000d0: 52b7 9a3d a3c4 78bc c2e9 d7bc f9fb b53c
000000e0: 6449 c5bd de91 ffbd ec1d c0bc 3e4a 433d
000000f0: 355e 82bd 119b 2bbd ad00 443d 8a38 893d
00000100: d443 e63d 51b9 3d3d 2bec aa3c 7642 03bd
00000110: 67ba 103c 7d4d f0bd 5075 f1bc 861b d7bd
00000120: 6d25 c13d 0b60 7e3c 7e75 803d 7e29 41ba
00000130: 8ceb b13c 6d22 da3d 64a2 83bd 24db 47bd
00000140: 481f 81bd c0e7 1b3c 3358 c13d ebb4 3e3a
00000150: a03b f0bc f50c f33d cd57 c53d dd8c d23c
00000160: 34c5 eebd 1eed 893c 2ed5 d7bd ae43 68bd
00000170: a345 ccbd 59d4 01bd e0bb cb3d 610c 0b3d
00000180: cfbc 47bd 4f1c 373d 4568 9abd e83a da3d
00000190: 1cca cfbd 59b6 933d 13c8 07be ac48 6bbc
000001a0: 4298 313c 48c8 cdbd 7874 c33d 58d2 c83c
000001b0: 1daf aabd f183 b93d b661 813d 1ecc ecbc
000001c0: 16f9 73bd 6dee b6bd c699 e03d 4123 7bbd
000001d0: 25b6 d03d 82f3 c8bd a9a9 96bd eb16 36bd
000001e0: f79c 9d3c 3c3b 643c 1a56 8bbc 57af 4abd
000001f0: c01c 8f3d 3268 c2bd bc18 0c3c caec af3d
00000200: 5083 4bbd a540 9d3c 23ee 40bd 42c4 b53d
00000210: 4866 a83c 4f28 a03d 66e2 36bd a879 6fbd
00000220: 04f2 b4bd 10e6 623d de13 d13d 857f db3a
00000230: 824c e03c 848b a13c 40ca 76bc 9a23 9abd
00000240: 71f4 093c 79c2 343d 27a9 223b b0dd 90b9
00000250: 539e bbbc ac50 f33d a647 693d 7007 cb3c
00000260: e4fa 6c3b 95dd 2c3c 5c03 cdbd d1fe a23d
00000270: 5584 2b3d d0be eabd f249 e23d 056c 31bb
00000280: 4b01 07bc 7f73 6dbd 06de 5d3d 1fd7 ef3c
00000290: 559f 8fbd f6bb 6e3d d5ee 59bd 7451 34bd
000002a0: 3af9 93bd 1dea 8cbd b2bc 5d3c 321f e3bd
000002b0: 3353 eabc 990d 77bd f292 f43d a5d8 fa3d
000002c0: d785 db3d 57c0 41bd 486e 7cbc d959 453d
000002d0: c04a eb3d d840 abbc 42cd 9e3d f8a9 f3bc
000002e0: 2c85 e2bd 02d8 adbd 82d0 e6bd a7ee f13c
000002f0: 7397 cb3d 415f 30bd 8208 cebd 5786 47bd
00000300: 0403 eabd 4f3c 1cbd 186d 86bd 7a1e fa3c
00000310: 9cb6 40bd 4f95 86bd 12bf 493d 7619 4ebd
00000320: a361 f13d 6472 e73d b1df ad3d f565 b23d
00000330: 248b 933d 1d9f 90bd b157 ebbd dbca 13bd
00000340: 5184 7b3c bd81 f1bc 2070 ce3d 7ef3 05bd
00000350: f9b9 2b3d 1440 0c3e 1ef1 58bd 357b 1bbd
00000360: f51a d2bd 4820 e13d 48eb db3d 399e babc
00000370: 6d6a b5bd 2fe7 df3c 8c9e e3bd 67f4 cfbd
00000380: 7e43 233d 2001 7bbd b080 993d 642a ecbb
00000390: 239a d9bc f48b 67bd 8c4e a03d b6c8 ea3d
000003a0: 8280 d0bd 0cc5 933b e861 8abb 370c babd
000003b0: 5dbb a4bc 48d2 fbbd 4098 973d 05ce 923d
000003c0: be92 913d 2d04 753d 8618 943d cc4e b0bd
000003d0: 926d e33d 3ba5 f039 6162 b5bb ed52 13bd
000003e0: aa80 213d 3734 8abd 4d32 11bd a243 fdbd
000003f0: f603 42bd 933d edbd 2bff 1d3d fff4 7dbd

sequential/conv2d_1/Conv2D f4 [20, 3, 3, 10]
-0.01298471 0.10943712 0.14459358 -0.063906826 -0.102128856 0.08901093 -0.00071341184 0.024045913
-0.0081520965 -0.06588915 0.12580317 -0.032304525 -0.096900165 -0.12811194 -0.07313261 -0.024415174
-0.113097034 -0.09500326 -0.1359029 0.07306228 0.13248973 -0.100085974 -0.10160998 0.049443282
0.15027548 -0.09428072 0.05658132 -0.03807342 -0.019288404 -0.108234055 0.06277804 0.057287943
-0.049866024 -0.086497806 0.09304754 -0.09434478 0.056851014 0.10019553 0.02475451 -0.094218865
-0.004373402 0.024663938 0.14063595 0.03690964 0.043322783 -0.03067868 -0.13153243 -0.016422523
-0.058496222 -0.0749121 -0.025242653 -0.029564863 -0.030277697 -0.055241443 -0.102373816 -0.11949572
0.035200182 0.11595801 -0.09430791 0.0039804433 0.1368669 0.047765408 0.026112083 -0.0026220172
0.05330717 0.10446055 -0.110207304 0.14244045 -0.100572295 -0.10141879 -0.14835387 0.11444779
0.12956432 -0.13901384 0.09072097 -0.011239628 -0.05301522 -0.13455932 0.022457296 0.07386886
0.026016034 0.05927773 0.1246677 0.10281674 0.12189808 0.009724626 -0.04117515 -0.1286596
0.073143475 -0.053483356 -0.087177455 -0.10498295 0.11869769 -0.11207248 -0.022623856 0.14518622
-0.07819454 -0.03148178 0.01987003 0.06264484 0.08929008 0.15133205 -0.058684383 0.034397747
0.059246566 0.026165394 0.030552253 0.13844389 0.111515954 0.086296186 0.07765494 0.079807535
0.042318087 -0.08473685 -0.035181798 0.013651066 0.036541197 -0.01679152 0.1154519 -0.034168515
-0.1201177 0.08184577 -0.0147989895 -0.08847719 0.10987933 -0.031147031 0.011398854 0.14199694
0.04351122 -0.08675805 0.088680886 0.107531354 -0.096861325 -0.1392444 -0.054644056 -0.026931595
0.03259398 -0.103308156 0.05538089 -0.08299835 0.043247968 0.06023918 0.070378855 0.0015903008
0.014439409 -0.13854182 0.09730131 -0.107319154 -0.009544719 0.08169464 -0.113853164 -0.07119837
-0.10526412 0.0652777 -0.07605983 -0.014727386 -0.1318494 -0.03599432 0.1384282 -0.064049356
-0.13661471 -0.044847038 -0.13540179 0.05060259 0.0954211 0.06493466 -0.008590288 0.07591605
-0.0047901054 -0.13452259 -0.047051672 0.14635138 -0.00798231 -0.049850386 0.059491344 -0.112833396
0.013853785 0.06170874 -0.014122063 -0.013748068 -0.0336315 0.08466097 -0.1455902 -0.02972746
0.036617134 -0.124794796 0.047588706 -0.13830508 0.09262706 -0.01982319 -0.13621448 0.031896416
-0.01748453 0.103600234 -0.029687772 -0.11028025 0.012630842 0.015257721 0.03644173 0.12036097
0.07096156 -0.13774283 -0.075827345 -0.059566244 -0.051204193 -0.06672166 0.10565404 0.037262414
-0.06143872 0.057027142 -0.04223029 -0.10925455 0.03569539 0.12885766 -0.04319925 0.04434851
0.071506016 -0.10567017 0.11944043 0.11536757 0.13508908 0.0053688586 0.1420382 0.02258632
0.13209806 -0.05799233 -0.02476824 -0.12778565 0.015482999 0.10014119 -0.09419903 -0.033028044
-0.004408927 -0.0028389632 0.02332751 -0.07761584 0.12901929 -0.07806346 0.061246704 0.037439268
-0.06876084 0.0318789 -0.06685786 0.12417569 0.07377638 0.0070798085 0.074919924 0.13356723
0.028774085 -0.14741164 -0.032783516 -0.06557249 -0.07137714 -0.0056914785 -0.08374173 0.037664324
00000000: d2bd 54bc 9220 e03d 5710 143e 95e1 82bd
00000010: ef28 d1bd 5d4b b63d 4204 3bba effb c43c
00000020: 5f90 05bc e4f0 86bd 8cd2 003e c051 04bd
00000030: 9873 c6bd c72f 03be 8dc6 95bd 5502 c8bc
00000040: 6b9f e7bd 1291 c2bd 212a 0bbe ada1 953d
00000050: 63ab 073e e0f9 ccbd e518 d0bd 0a85 4a3d
00000060: d1e1 193e 4016 c1bd d0c1 673d e0f2 1bbd
00000070: b702 9ebc d1a9 ddbd c691 803d c3a6 6a3d
00000080: 5140 4cbd c325 b1bd b58f be3d d637 c1bd
00000090: 9cdc 683d 5033 cd3d f8c9 ca3c d2f5 c0bd
000000a0: c14e 8fbb 070c ca3c df02 103e 902e 173d
000000b0: 3b73 313d db51 fbbc 70b0 06be 8788 86bc
000000c0: bc99 6fbd 846b 99bd aec9 cebc 0332 f2bc
000000d0: ef08 f8bc da44 62bd 5da9 d1bd 2cba f4bd
000000e0: 112e 103d 657b ed3d 8124 c1bd 616e 823b
000000f0: d626 0c3e a9a5 433d 02e9 d53c 26d6 2bbb
00000100: 9e58 5a3d 6aef d53d 5eb4 e1bd e9db 113e
00000110: d9f8 cdbd a8b4 cfbd 14ea 17be 9a63 ea3d
00000120: 82ac 043e a559 0ebe eacb b93d 6b26 38bc
00000130: 7d26 59bd ebc9 09be 5df8 b73c 8f48 973d
00000140: 941f d53c 34cd 723d c751 ff3d 9591 d23d
00000150: b3a5 f93d 0a54 1f3c 46a7 28bd 58bf 03be
00000160: 3fcc 953d 5d11 5bbd 188a b2bd 4d01 d7bd
00000170: c617 f33d 4286 e5bd aa55 b9bc b2ab 143e
00000180: 7624 a0bd 0af3 00bd 79c6 a23c f04b 803d
00000190: b8dd b63d caf6 1a3e 095f 70bd a7e4 0c3d
000001a0: 87ac 723d cf58 d63c b848 fa3c 3cc4 0d3e
000001b0: 7a62 e43d 0ebc b03d 8e09 9f3d 2272 a33d
000001c0: bb55 2d3d 838a adbd ca1a 10bd b9a8 5f3c
000001d0: 39ac 153d 5f8e 89bc 0c72 ec3d 49f4 0bbd
000001e0: 4500 f6bd c19e a73d 7677 72bc 8733 b5bd
000001f0: 6a08 e13d 0f28 ffbc 42c2 3a3c a567 113e
00000200: d238 323d 34ae b1bd 539e b53d 6639 dc3d
00000210: 3b5f c6bd 1696 0ebe 72d2 5fbd a69f dcbc
00000220: 4481 053d 3a93 d3bd 12d7 623d 0afb a9bd
00000230: c824 313d 5cbd 763d ca22 903d a471 d03a
00000240: 4593 6c3c e8dd 0dbe e945 c73d 25ca dbbd
00000250: 7461 1cbc 854f a73d d92b e9bd 73d0 91bd
00000260: b794 d7bd 51b0 853d 42c5 9bbd 224b 71bc
00000270: 8703 07be c86e 13bd 1fc0 0d3e 4f2c 83bd
00000280: bae4 0bbe 87b1 37bd c4a6 0abe a944 4f3d
00000290: 236c c33d 77fc 843d 48be 0cbc e079 9b3d
000002a0: 51f6 9cbb 4ac0 09be 41b9 40bd 23dd 153e
000002b0: 3cc8 02bc eb2f 4cbd 32ad 733d 3215 e7bd
000002c0: fcfa 623c 4ec2 7c3d 3a60 67bc 943f 61bc
000002d0: 2fc1 09bd bb62 ad3d 9915 15be 0187 f3bc
000002e0: d9fb 153d 6a94 ffbd 60ec 423d d99f 0dbe
000002f0: 42b3 bd3d 3e64 a2bc cf7b 0bbe d1a5 023d
00000300: b83b 8fbc 5c2c d43d c533 f3bc 9dda e1bd
00000310: 97f1 4e3c 85fb 793c ec43 153d d07f f63d
00000320: 4b54 913d 750c 0dbe 5e4b 9bbd bcfb 73bd
00000330: 7dbb 51bd 5ea5 88bd 2561 d83d 79a0 183d
00000340: 2ba7 7bbd 4b95 693d abf9 2cbd d9c0 dfbd
00000350: 5435 123d 43f3 033e b2f1 30bd c9a6 353d
00000360: bf71 923d 9a69 d8bd 2f9d f43d d545 ec3d
00000370: cb54 0a3e 40ed af3b 7672 113e f206 b93c
00000380: b744 073e 5e89 6dbd c4e6 cabc 3eda 02be
00000390: 68ac 7d3c d316 cd3d 6ceb c0bd 6a48 07bd
000003a0: c378 90bb e60d 3abb 5619 bf3c 0ef5 9ebd
000003b0: a21d 043e bcdf 9fbd d3dd 7a3d eb59 193d
000003c0: 7cd2 8cbd 7393 023d c6ec 88bd d34f fe3d
000003d0: 1218 973d bdfd e73b 9e6f 993d d9c5 083e
000003e0: a1b7 eb3c 14f3 16be 0248 06bd df4a 86bd
000003f0: 2e2e 92bd 957f babb c980 abbd e845 1a3d

sequential/conv2d/Conv2D f4 [10, 6, 6, 3]
-0.1159478 -0.011188143 0.09804092 0.09771035 -0.076952964 -0.08337983 0.024481183 0.0041176975
0.10575443 -0.0023761773 0.08355873 -0.05572259 0.028066125 -0.08855164 -0.06781273 0.07022513
-0.07893684 0.100680485 -0.038736127 -0.0019446154 0.08182474 0.09946778 0.04659446 -0.08273518
-0.08562292 0.015180267 0.018364795 0.10516662 0.0812057 0.0077230753 -0.08513269 0.042161472
-0.09558371 -0.11010175 0.03882465 0.016652174 0.033767875 -0.00610828 0.07271868 -0.018227616
-0.08095022 0.021001149 -0.08561518 -0.05449382 -0.023067808 0.09526849 0.032511204 0.06406436
0.00999984 -0.069604844 -0.070578195 -0.032748863 -0.02342931 0.015499898 0.047316268 -0.06757814
0.021729598 0.09870645 -0.025715748 -0.062271643 0.046457477 -0.05323233 -0.029810645 0.08280154
-0.06458512 0.08213536 -0.035868797 -0.06231566 -0.044920973 0.03486244 0.02931401 0.080251805
-0.09925175 -0.014333705 0.056354407 0.05993264 0.046925515 -0.087124415 0.0077181333 0.051545337
0.092497155 0.09726261 -0.050165482 -0.0069153686 0.04154094 -0.059925564 0.033236656 -0.110603765
0.10834967 0.03962181 -0.030987883 -0.05309193 -0.1038236 0.011368732 -0.04552859 -0.043150727
-0.035984527 -0.050871857 -0.00085477415 -0.018630605 0.06857644 -0.07600507 0.08487305 0.010380176
0.112438284 0.057205345 0.0010448664 -0.07015074 -0.083464526 0.08711126 0.062008914 -0.0347697
0.056863595 0.09110954 0.082244955 -0.11220514 -0.08120453 -0.07061132 0.0392296 -0.00040975676
0.05671834 -0.08182075 0.03530671 -0.05232105 0.09081779 0.08603921 -0.008139294 0.110267796
0.09540978 0.044802938 0.06429568 0.018647525 -0.09879713 0.03412761 -0.013069832 0.11426747
0.013105815 0.071902335 -0.081168525 0.08876646 -0.100398496 0.06589619 -0.06428845 0.08190194
-0.10697927 0.024234712 0.038177323 -0.011187828 -0.016722547 0.049612593 -0.085072055 -0.02291225
0.047841802 0.094036415 0.045522626 -0.05819252 0.098734185 -0.06281664 0.04682151 0.094490774
-0.003638071 -0.10775346 0.099273555 0.094775826 -0.10569022 -0.087984204 -0.0817999 -0.077578895
0.080133915 -0.01246897 -0.07508831 0.024462292 -0.05688811 0.048106432 -0.070234925 0.0072720055
0.017816078 0.018827483 -0.08593742 0.032022186 0.003377695 -0.08102182 -0.0083962185 0.10801165
-0.07958058 0.050924283 0.08249966 -0.06497333 -0.09074546 -0.08579658 -0.014953614 -0.036832545
-0.008248035 0.09271157 -0.060281646 -0.08962304 0.076004356 0.0670275 -0.08498028 0.083584845
-0.031938605 -0.015636096 -0.11027233 0.07199139 0.09560907 0.028586254 -0.035761625 0.05331292
-0.091521665 -0.10261167 -0.03209485 -0.056347102 -0.06876246 -0.0488389 0.049923107 0.014238073
-0.021152738 -0.044814862 -0.003413023 0.098051004 -0.031730235 0.052525204 0.07040778 0.01690566
-0.019657798 -0.080267414 0.009389057 0.079867266 0.056287654 -0.05012853 0.009987248 -0.038214277
-0.013974395 0.098432526 0.06648687 0.012569217 0.06422277 -0.07602309 -0.018872755 -0.006321094
0.07191824 0.03432755 0.011508624 0.017184108 -0.05277192 0.02860613 -0.010202019 -0.065855324
0.06658374 -0.032053825 0.017484726 -0.08036354 -0.088408776 -0.06550951 -0.03917217 0.07851509
00000000: 0a76 edbd 794e 37bc aec9 c83d 5d1c c83d
00000010: 8499 9dbd 0bc3 aabd c38c c83c c0ed 863b
00000020: c795 d83d a4b9 1bbb d720 ab3d 5f3d 64bd
00000030: eeea e53c 905a b5bd 67e1 8abd 31d2 8f3d
00000040: a3a9 a1bd 9231 ce3d c6a9 1ebd 77e2 feba
00000050: bb93 a73d c3b5 cb3d d5d9 3e3d 1071 a9bd
00000060: 125b afbd a8b6 783c c471 963c 9961 d73d
00000070: 2d4f a63d da11 fd3b 0c5a aebd 82b1 2c3d
00000080: 64c1 c3bd 077d e1bd 9906 1f3d 246a 883c
00000090: 2f50 0a3d f727 c8bb 88ed 943d 1552 95bc
000000a0: 3bc9 a5bd 9a0a ac3c 0357 afbd e934 5fbd
000000b0: b3f8 bcbc 201c c33d 782a 053d 2d34 833d
000000c0: 5ed6 233c fc8c 8ebd 4d8b 90bd ac23 06bd
000000d0: d3ee bfbc 49f3 7d3c b4ce 413d 6866 8abd
000000e0: 4502 b23c 9b26 ca3d d5a9 d2bc 8d10 7fbd
000000f0: 324a 3e3d 250a 5abd 7435 f4bc db93 a93d
00000100: 3445 84bd 9536 a83d 29eb 12bd b53e 7fbd
00000110: 0eff 37bd ebcb 0e3d ef23 f03c 0f5b a43d
00000120: 8044 cbbd ebd7 6abc e1d3 663d ee7b 753d
00000130: f834 403d 496e b2bd 65e8 fc3b 3421 533d
00000140: 266f bd3d 9f31 c73d 527a 4dbd 519a e2bb
00000150: d526 2a3d 8274 75bd 2923 083d 3a84 e2bd
00000160: 6fe6 dd3d 7b4a 223d 4dda fdbc ec76 59bd
00000170: 78a1 d4bd eb43 3a3c 307c 3abd d1be 30bd
00000180: 8364 13bd 025f 50bd ec12 60ba 369f 98bc
00000190: ce71 8c3d 8ca8 9bbd ecd1 ad3d 9d11 2a3c
000001a0: 0b46 e63d 2750 6a3d e6f3 883a 31ab 8fbd
000001b0: 73ef aabd 6367 b23d 0ffd 7d3d ac6a 0ebd
000001c0: cde9 683d a397 ba3d 0b70 a83d cfcb e5bd
000001d0: 904e a6bd ab9c 90bd 38af 203d 9fd4 d6b9
000001e0: 7d51 683d a391 a7bd c59d 103d 994e 56bd
000001f0: adfe b93d 5335 b03d ac5a 05bc 15d4 e13d
00000200: 3466 c33d 4983 373d 74ad 833d b2c2 983c
00000210: 2656 cabd 65c9 0b3d d922 56bc 1005 ea3d
00000220: c6b9 563c 8841 933d af3b a6bd 31cb b53d
00000230: ba9d cdbd 95f4 863d aaa9 83bd 34bc a73d
00000240: f317 dbbd e087 c63c d35f 1c3d 274d 37bc
00000250: b9fd 88bc 9336 4b3d 423a aebd 79b2 bbbc
00000260: c4f5 433d 2a96 c03d ef75 3a3d 485b 6ebd
00000270: 2635 ca3d 03a6 80bd e9c7 3f3d 6184 c13d
00000280: b46c 6ebb d9ad dcbd ef4f cb3d d419 c23d
00000290: 1d74 d8bd 1031 b4bd b586 a7bd afe1 9ebd
000002a0: 401d a43d a74a 4cbc e6c7 99bd 2565 c83c
000002b0: 8203 69bd 400b 453d 54d7 8fbd 014a ee3b
000002c0: 06f3 913c 183c 9a3c f5ff afbd b229 033d
000002d0: 525c 5d3b c5ee a5bd 4b90 09bc 3635 dd3d
000002e0: 25fb a2bd fb95 503d 95f5 a83d bd10 85bd
000002f0: c1d8 b9bd 1eb6 afbd 0100 75bc b9dd 16bd
00000300: c422 07bc 90df bd3d e3e9 76bd 498c b7bd
00000310: 2ca8 9b3d b745 893d 240a aebd 882e ab3d
00000320: 0ed2 02bd 4517 80bc 76d6 e1bd 3970 933d
00000330: b0ce c33d b82d ea3c c87a 12bd a65e 5a3d
00000340: b66f bbbd 1126 d2bd e475 03bd 38cc 66bd
00000350: 55d3 8cbd 4c0b 48bd 2c7c 4c3d ce46 693c
00000360: 8248 adbc ca8f 37bd 06ad 5fbb f7ce c83d
00000370: 90f7 01bd ab24 573d f431 903d bd7d 8a3c
00000380: 6409 a1bc 3e63 a4bd 8fd4 193c 7391 a33d
00000390: e28d 663d 9353 4dbd 8ea1 233c 9386 1cbd
000003a0: dcf4 64bc fe96 c93d 452a 883d 1eef 4d3c
000003b0: 3a87 833d feb1 9bbd 099b 9abc 2e21 cfbb
000003c0: df49 933d 0c9b 0c3d ab8e 3c3c b0c5 8c3c
000003d0: 5e27 58bd 6757 ea3c 5e26 27bc 28df 86bd
000003e0: 0e5d 883d df4a 03bd 213c 8f3c a495 a4bd
000003f0: a90f b5bd da29 86bd ff72 20bd 85cc a03d

sequential/dense/BiasAdd/ReadVariableOp/resource f4 [12]
0.06616565 -0.07284655 0.076559246 -0.07460717 0.08253921 -0.06757841 -0.07847125 -0.05480458
0.08721066 0.02076779 0.079958454 0.004724902
00000000: db81 873d 9230 95bd 18cb 9c3d a5cb 98bd
00000010: 510a a93d 8d66 8abd 89b5 a0bd c47a 60bd
00000020: 819b b23d 3621 aa3c 42c1 a33d 5ad3 9a3b

sequential/dense_1/BiasAdd/ReadVariableOp/resource f4 [3]
-0.08852497 -0.025014777 0.07583918
00000000: 944c b5bd caeb ccbc 9251 9b3d

sequential/dense/MatMul f4 [12, 18502]
-0.006197729 0.0048427233 -0.0014614156 -0.006285638 0.016797073 0.00034973078 -0.0029663069 -0.008564418
-0.0056395545 -0.0029693053 0.0014805426 0.0048408415 -0.0096635055 0.00781486 0.016192632 -0.016500212
0.017125465 0.026021447 0.00026674214 -0.0040096273 0.012705308 0.0036412345 0.0019297458 -0.0057595856
-0.022715349 0.0043235878 0.002609817 0.0056734667 -0.017183553 -0.0038185678 -0.0005662083 0.0023974115
-0.011410874 0.003376776 0.006959182 -0.01090137 -0.0030636608 -0.0035946732 -0.01790762 -0.0016985304
0.0042965077 0.010898456 0.012793231 -0.003503811 -0.0069086775 -0.005595758 -0.0013449888 -0.031209985
-0.01789656 0.0058871303 0.014560261 0.018348297 0.00048243025 -0.016649699 -0.0015557419 0.01633501
-0.0058093173 0.011587435 -0.0028645769 -0.016890591 -0.013053628 -0.006052728 0.012053558 0.009232976
-0.0015803853 -0.0027688176 0.028483344 -0.0018444301 -0.01030084 0.00575942 0.0106678335 0.016890723
-0.003948104 -0.010350123 0.00010803666 -0.019252883 0.01554909 0.014493581 0.014673719 -0.0093164705
0.0033282142 -4.0267867e-05 -0.0021346216 0.012452387 0.0046853474 -0.0074023865 0.0058967457 -0.004554627
-0.019073542 -0.017806487 -0.0028696551 -0.006613457 0.005937729 0.008335899 -0.009054725 0.005390352
0.009344313 0.012368299 0.0002947511 -0.0023234664 -0.011054566 0.0025670265 0.017784968 -0.006911374
0.014781125 -0.008682711 0.013070534 0.009722993 0.011737367 0.007809861 0.004162053 0.00049864664
-0.0038888454 -0.015136934 -0.010783648 0.010811678 -0.00035651625 -0.019303748 -0.005000135 0.008045241
-0.004563114 0.0011072223 -0.017647231 0.0001421505 -0.00118622 -0.0067903376 -0.00625671 0.004215007
0.009609546 -0.0095973145 -0.00361585 -0.015708193 -0.0007215349 0.0062812776 -0.014964869 -0.021714173
-0.017895075 -0.008746708 -0.013169009 0.0016423755 -0.010868243 0.013931238 0.018750759 -0.0033212216
-0.016536443 0.01783162 -0.010422315 -0.01759313 0.006778035 0.008664197 -0.021186722 -0.0074916515
-0.0038115226 -0.007349527 0.0038636264 0.011444508 0.024015134 0.010341229 -0.011625853 -0.006578674
0.010757542 -0.008162745 -0.0104785105 -0.0037491138 -0.00956969 -0.0040810173 -0.0063541536 -0.00425857
-0.0033023683 0.0038113524 -0.00079427345 0.009395538 0.0038155722 0.0060803276 0.016040323 0.0153394155
0.004085044 -0.0019143751 0.01141507 0.012144469 -0.011434299 0.011062676 -0.0025761228 0.009088114
-0.0063984115 -0.017628394 0.0016221965 0.022341292 -0.008374244 0.00021845393 -0.0035488522 0.009678548
0.010477226 0.01608533 -0.010380038 0.016966507 0.010322767 0.0068733366 0.014132858 -0.0049933596
-0.019040734 0.009473299 -0.008748619 -0.0024728056 -0.009287135 -0.005557159 -0.02649631 0.011095858
0.004000123 -0.0028863926 -0.019272648 0.024771119 0.0121773165 0.001531718 -0.016290685 0.00794449
-0.01315324 9.402905e-05 0.0023390283 -0.007114742 -0.014176059 0.008827696 -0.008777819 0.014657505
0.0039845724 0.008331011 -0.008142729 -0.0073000942 0.00031779628 0.008005385 -0.00882454 -0.005364747
0.00764413 0.0014966349 -0.016814258 0.0074244295 0.017631996 -0.0033845326 0.00028588125 -0.0096300645
0.024541877 0.004889651 -0.010482294 -0.0007479868 0.016600221 -0.011402584 -0.0035580501 0.012463636
-0.013514064 -0.00014364417 -0.0032579696 -0.020019976 -0.001802178 -0.003856211 0.006475108 0.017609172
00000000: 5216 cbbb b5af 9e3b f88c bfba c1f7 cdbb
00000010: 049a 893c 125c b739 5f66 42bb c651 0cbc
00000020: 03cc b8bb ad98 42bb c40e c23a ec9f 9e3b
00000030: ae53 1ebc e609 003c 69a6 843c 742b 87bc
00000040: b44a 8c3c ee2a d53c 86d9 8b39 3163 83bb
00000050: ed29 503c c7a1 6e3b 86ef fc3a e8ba bcbb
00000060: 8a15 babc e2ac 8d3b 7709 2b3b 7de8 b93b
00000070: 86c4 8cbc f040 7abb 996d 14ba e41d 1d3b
00000080: adf4 3abc e64c 5d3b da09 e43b a99b 32bc
00000090: b3c7 48bb 9c94 6bbb 00b3 92bc 39a1 deba
000000a0: b8c9 8c3b 708f 323c b39a 513c 32a0 65bb
000000b0: 3062 e2bb 9f5c b7bb 564a b0ba 15ac ffbc
000000c0: ce9b 92bc d4e8 c03b 298e 6e3c 2b4f 963c
000000d0: b1ee fc39 f364 88bc 09ea cbba 00d1 853c
000000e0: 165c bebb 3ad9 3d3c a0bb 3bbb 235e 8abc
000000f0: e2de 55bc f655 c6bb 497c 453c e845 173c
00000100: ee24 cfba 0d75 35bb e755 e93c cec0 f1ba
00000110: dbc4 28bc 84b9 bc3b 23c8 2e3c 6a5e 8a3c
00000120: 195f 81bb 9093 29bc bd91 e238 39b8 9dbc
00000130: 9cc1 7e3c 7c76 6d3c 0a6a 703c 1ca4 18bc
00000140: 2b1e 5a3b 4be5 28b8 02e5 0bbb 1905 4c3c
00000150: 8b87 993b b88f f2bb 7d39 c13b fb3e 95bb
00000160: 1e40 9cbc e9de 91bc d310 3cbb b3b5 d8bb
00000170: 4891 c23b 4b93 083c 455a 14bc 8da1 b03b
00000180: e418 193c 68a4 4a3c d388 9a39 4c45 18bb
00000190: 361e 35bc 8f3b 283b c8b1 913c cf78 e2bb
000001a0: 882c 723c ee41 0ebc cb25 563c 304d 1f3c
000001b0: 164e 403c dde9 ff3b d561 883b 9cb7 023a
000001c0: 00dc 7ebb e700 78bc e6ad 30bc 7723 313c
000001d0: cdea bab9 e522 9ebc 2cd8 a3bb 30d0 033c
000001e0: 2d86 95bb 3720 913a ed90 90bc 3c0e 1539
000001f0: f07a 9bba 7b81 debb 1605 cdbb 0b1e 8a3b
00000200: 5b71 1d3c 0e3e 1dbc e5f7 6cbb 78ae 80bc
00000210: 6325 3dba 2dd3 cd3b 362f 75bc ece1 b1bc
00000220: b198 92bc 5a4e 0fbc d4c2 57bc fa44 d73a
00000230: b710 32bc d93f 643c 319b 993c daa8 59bb
00000240: 6f77 87bc 9e13 923c 5cc2 2abc 781f 90bc
00000250: 471a de3b 47f4 0d3c c78f adbc 877c f5bb
00000260: bdca 79bb 4dd4 f0bb e534 7d3b bf81 3b3c
00000270: 63bb c43c 426e 293c 5d7a 3ebc eb91 d7bb
00000280: 6740 303c 09bd 05bc 0fae 2bbc b1b3 75bb
00000290: 30ca 1cbc 0eba 85bb 8136 d0bb 798b 8bbb
000002a0: 8c6c 58bb e2c7 793b ca36 50ba beef 193c
000002b0: ae0e 7a3b 7c3d c73b ff66 833c 2c52 7b3c
000002c0: d5db 853b c5eb faba 4606 3b3c 98f9 463c
000002d0: ed56 3bbc 3a40 353c 2bd4 28bb 50e6 143c
000002e0: c4a9 d1bb 6c69 90bc e29f d43a 1605 b73c
000002f0: 2034 09bc c810 6539 dc93 68bb c692 1e3c
00000300: aca8 2b3c 62c5 833c 0911 2abc 58fd 8a3c
00000310: d320 293c ba39 e13b 818d 673c 569f a3bb
00000320: 50fb 9bbc e535 1b3c 5e56 0fbc cb0e 22bb
00000330: 1129 18bc d418 b6bb ca0e d9bc 67cb 353c
00000340: 7713 833b a229 3dbb ace1 9dbc cdec ca3c
00000350: 5e83 473c edc3 c83a 0b74 85bc 9b29 023c
00000360: b080 57bc 7631 c538 624a 193b c822 e9bb
00000370: b342 68bc 0aa2 103c d7d0 0fbc 0826 703c
00000380: 0491 823b cb7e 083c 1569 05bc a135 efbb
00000390: e59d a639 0529 033c ce94 10bc c2ca afbb
000003a0: 9c7b fa3b bc2a c43a 0ebe 89bc a148 f33b
000003b0: fa70 903c 09cf 5dbb 55e2 9539 6bc7 1dbc
000003c0: 0c0c c93c 5e39 a03b edbd 2bbc 8b14 44ba
000003d0: 30fd 873c e7d1 3abc 2d2e 69bb 4734 4c3c
000003e0: 186a 5dbc 309f 16b9 a983 55bb ef00 a4bc
000003f0: 0f37 ecba 7cb8 7cbb 252d d43b 1c41 903c

sequential/dense_1/MatMul f4 [3, 12]
0.23635949 0.17730896 -0.54994726 0.43456918 -0.381072 0.15595837 0.1556557 0.01426684
-0.17834088 -0.1829692 0.14506859 0.5030342 0.17358525 -0.5677267 0.11650367 0.39864665
0.37753978 0.32551533 -0.20331444 0.30913132 0.43396488 -0.36492968 0.44433907 -0.48386854
0.54505795 -0.42534587 0.016242309 -0.4596857 0.31533602 -0.50827855 -0.17046174 -0.28418607
0.4978515 -0.18754694 0.4495941 0.28777936
00000000: 3908 723e 7b90 353e 58c9 0cbf da7f de3e
00000010: df1b c3be 8db3 1f3e 3564 1f3e 77bf 693c
00000020: fe9e 36be 475c 3bbe dc8c 143e d9c6 003f
00000030: 55c0 313e 8956 11bf 7a99 ee3d 6a1b cc3e
00000040: e54c c13e f2a9 a63e a931 50be 7646 9e3e
00000050: a530 de3e 10d8 babe 6980 e33e 9ebd f7be
00000060: eb88 0b3f efc6 d9be 970e 853c ed5b ebbe
00000070: b973 a13e 8b1e 02bf 868d 2ebe d680 91be
00000080: 64e6 fe3e 4e0c 40be 3331 e63e d157 933e
