leafify-master/app/src/main/ml/potato_disease.tflite (tflite, 307640 bytes, 28 tensors)

model/activation/Relu;model/batch_normalization/FusedBatchNormV3;model/conv2d/BiasAdd/ReadVariableOp/resource;model/conv2d/BiasAdd;model/conv2d_3/Conv2D;model/conv2d/Conv2D f4 [16]
00000000: e3c2 05c0 338d 0c40 a07f 1440 43bc 1fc0
00000010: 2922 49c0 539f 853f 5b48 f9bf e1ba b13f
00000020: 1d31 39c0 0002 5c40 720a d03f 8936 24c0
00000030: dd1d e23f 571f 65c0 9760 043f a7ac 293e
-2.09002 2.196118 2.3202896 -2.4958656 -3.14271 1.0439247 -1.9475206 1.3885156
-2.8936226 3.437622 1.6253188 -2.5658286 1.7665364 -3.5800378 0.51709884 0.16569768

model/activation_2/Relu;model/batch_normalization_1/FusedBatchNormV3;model/separable_conv2d/BiasAdd/ReadVariableOp/resource;model/separable_conv2d/BiasAdd;model/conv2d_2/Conv2D;model/separable_conv2d/separable_conv2d f4 [32]
00000000: d9e9 9a3f e73d 81bc da34 063f e6a7 9fbf
00000010: fc9d 7fbf 111d a6bf 2605 0d3f 9eb5 2dbf
00000020: 3dec 4f3f dc52 61bf 64a6 423f f0c2 cf3e
00000030: bc4f cbbf 4f09 a73f 8dcc 693e a69f bdbe
00000040: bbd6 adbf 1105 1b3f 67c0 ac3f 936a 8dbc
00000050: fe6b 3bbf a0ed 863f 239d 623f 1236 6f3e
00000060: e20f 43bf ed3b a5bf 8369 b83e 035c 1cbd
00000070: 64cb 853f 1a29 323f 62d0 893f 3ddc 28bf
1.2102615 -0.015776588 0.52424395 -1.2473114 -0.9985044 -1.297762 0.5508598 -0.6785525
0.81219846 -0.8801706 0.7603514 0.40578413 -1.5883708 1.3049716 0.22831936 -0.37035865
-1.3581156 0.60554606 1.3496217 -0.017262733 -0.7321166 1.0541267 0.8852102 0.2336047
-0.7619611 -1.2908913 0.36018 -0.038173687 1.0452695 0.69593966 1.0766718 -0.65961057

model/batch_normalization_3/FusedBatchNormV3 f4 [32]
00000000: 7b17 30c0 eaf1 cdbf f62a a6be c9ce 723f
00000010: d98b 60bf 41a2 47be 838d ff3f 6634 f63f
00000020: e555 123f 4729 bcbf bcf0 c1bf 14ed d4bf
00000030: 0070 afbf 7976 b4bf 275e 0240 d5f1 923f
00000040: 3ec5 0e3f 8b5c adbf de6c b8bf 9ed5 443f
00000050: 06ca 1340 f3b5 a5bf a313 59bd 7312 fa3f
00000060: ed32 c5bf c356 913f 5b9d 1040 3825 d1bf
00000070: 72e1 fe3e 6c94 0340 75d9 5b3f 2522 a3bf
-2.7514331 -1.6089451 -0.32454652 0.9484678 -0.8771339 -0.19495489 1.9965061 1.9234741
0.57162315 -1.4700097 -1.5151591 -1.663485 -1.3706055 -1.4098655 2.0369966 1.1480051
0.5576972 -1.3543867 -1.4408224 0.76888454 2.3092055 -1.2946151 -0.052997243 1.953688
-1.5406166 1.1354603 2.2596042 -1.6339483 0.49781376 2.055934 0.8587869 -1.2744795

model/batch_normalization_4/FusedBatchNormV3;model/conv2d_transpose_1/conv2d_transpose;model/conv2d_transpose_1/BiasAdd;model/conv2d_transpose_3/Shape;model/conv2d_transpose_1/BiasAdd/ReadVariableOp/resource f4 [32]
00000000: f866 643f b760 5fbf 04e5 1b3d e563 6bbe
00000010: e886 843e 7c84 21bf a3e9 493f 6a20 b43f
00000020: 09a3 7cbb ba32 683d 518d 34be 9fa3 ffbd
00000030: 9c33 99be 796c 7d3d 6161 82be 77dd dcbc
00000040: e25e 84bc fdb3 643f ceba 8c3f ed3a e63e
00000050: a2e5 303f bcd9 843f 97db 033f 6999 5f3f
00000060: 04a7 c6be b8b0 093f 4cf3 9bbc 8829 0bbf
00000070: 07d1 1e3f 1ef1 27be e42a 843f d0fa 623d
0.8921962 -0.8725695 0.038060203 -0.22987325 0.25884175 -0.6309278 0.78872126 1.4072392
-0.0038549325 0.056689 -0.17632033 -0.1248238 -0.29922187 0.061871026 -0.2546492 -0.026961071
-0.016158525 0.8933714 1.0994508 0.44966832 0.6910039 1.0378947 0.5150694 0.8734346
-0.38799298 0.53785276 -0.019036911 -0.54360247 0.620377 -0.16400573 1.0325589 0.055414975

model/batch_normalization_5/FusedBatchNormV3 f4 [16]
00000000: c57d 2b40 83d8 94bf ab22 8d40 328c dd3e
00000010: df08 8a40 b309 cc3e 8a34 e6bf 09d7 10c0
00000020: a30b 4240 dc8b 0440 a47a 13bf 163b 16c0
00000030: d041 683f 5347 193f 714f 3d40 9713 0e3f
2.6795514 -1.1628574 4.410482 0.43271023 4.313583 0.3985115 -1.7984784 -2.2631247
3.0319602 2.0710363 -0.5760901 -2.3473563 0.9072542 0.5987446 2.9579737 0.5549864

model/batch_normalization_6/FusedBatchNormV3;model/conv2d_transpose_3/conv2d_transpose;model/conv2d_transpose_3/BiasAdd;model/conv2d_transpose_3/Shape;model/conv2d_transpose_3/BiasAdd/ReadVariableOp/resource f4 [16]
00000000: e543 533f bc22 46bf be4e 053f 62ae 89bd
00000010: 1805 86be 89da 973e 7ea0 a0be 529a b33d
00000020: 5016 4bbd f622 99be e14d 8f3e 0009 7b3f
00000030: 6219 313f 530b 153f 06f2 b2bd db0a 313e
0.82525474 -0.7739675 0.52073276 -0.06722714 -0.2617576 0.29658917 -0.31372446 0.08769669
-0.049581826 -0.29909486 0.27989104 0.9806061 0.69179356 0.58220404 -0.087375686 0.17289297

model/conv2d/Conv2D f4 [16, 3, 3, 3]
00000000: 5f3f 433c b59f 203c 7a09 e23b 119a 493c
00000010: 5d70 45bc 02a3 f2bb 0878 153c cd20 8e3c
00000020: befe 603c d666 77bc 45fe 053b acb6 343b
00000030: c830 3e3b 15d1 84bb 5f48 47bb 70be 14bc
00000040: 3648 3fbc e280 c6bb 1108 08bc 2703 cfbb
00000050: f297 febb 50a7 10bc bf65 343c c013 21ba
00000060: 1f91 2c3c fd9e 033c dc1f 2bbc 79ba c33a
00000070: 155b 79ba 77aa 50bb bb26 0b3b cc82 413a
00000080: 39b4 ac3b c7d0 b9bb 1544 8d3b 9a39 babb
00000090: 7954 523b adde 923b cbce 393b 0d35 f539
000000a0: e9dc 28bb f1f7 b7ba 676c 66bb b423 343b
000000b0: 8e80 a03b 13dd 2fbb 998b 51bb 21c0 a3bb
000000c0: 3a85 86bb 5d2e 89bb 6045 8ebb 98f9 80bb
000000d0: 2291 9abb c4d4 4a3b 090f ad3c 02cc 15bc
000000e0: cda7 4b3c 724d 71bb d3db c43b 8c94 d5bb
000000f0: 833d 623c cbde 90bc fbf3 65ba 2ca2 78bc
00000100: 8869 2dbc 01da 533c ca0c 703c b465 f2bb
00000110: 11f0 5e3c e134 d3bb deb9 caba 5f73 b53b
00000120: 1462 93bb 7425 6dbc e2b4 eebb e1f6 803b
00000130: eb03 993c ca1c 3dbc 2164 99ba c1ff 78ba
00000140: 0b7b d639 7ff4 d33a dedd 173b 8659 7b3b
00000150: 2227 243b 856a 1cbb 9a14 be3a 4f58 693b
00000160: 2453 313b 57c8 0d3b 2b77 3dbb 9ec8 603b
00000170: 78e7 213a eadb 89bb a5a3 eb3a 71bf 813a
00000180: ffc7 d83a 81db 5eba fbf3 113a d46f 9b39
00000190: a73f 12bb ef61 7dba 7335 e838 9929 0e3b
000001a0: e950 fc3a 59a9 1ebb 94c3 373b 42f4 af3a
000001b0: 3199 483b 202b 8a3a ae93 2a3b 58b1 623b
000001c0: 9c35 f93a 63cb f5ba 92b2 313b 794a 1fba
000001d0: 4fd1 bf39 6c53 3839 010f 113b 4395 573b
000001e0: d0ac c93a b519 573b 3330 5cbb 2347 d1ba
000001f0: 1e84 19ba f10f 83bb bd94 e43a deec f339
00000200: e03e 34bb 3dae 8e3a be14 713b e24d 633b
00000210: a8cf 6cbb 1db8 4b3b f2d4 c7ba d277 523c
00000220: a6a8 9fbc aace a8bb 4392 4dbb 639e 223c
00000230: 9d02 863c c35e 903c 82f7 b2bb c069 d8bb
00000240: abae 15bc 76f6 113c 6b9e c2bb 28a8 5b3c
00000250: c71b 33bc 1f2d de3b 8b66 d1bb 276e aebc
00000260: 757a 3a3c 7990 99bb 78b7 8fb9 ad22 18bc
00000270: cf31 c4bb 6e5d 673c d968 4d3c fb2d 3b3c
00000280: de9f 33bc 03ef d9bb 76e2 91bb d9a1 2abc
00000290: 3ddf 203c 0bd5 893b bb4f 003b c57f 6e3b
000002a0: 09c9 433c 6c8a 42ba a574 843b 7b6b 27bc
000002b0: e9f9 aa3b 5e76 66bb c2b5 1f3a a09d 97bb
000002c0: 3cd3 4fbc 6da6 2f3c 0b08 173b e59c 043b
000002d0: a09c 023c f757 333b ceaa 18bc 6e8d 303c
000002e0: 0e26 76ba f6e6 fb3b 48b2 09bc 2c08 cfba
000002f0: a86d 47bb a4c0 91ba 9fd3 723b 4fb8 9c3b
00000300: e2ba 90bb 843d a5bb c5c8 41bb 2723 bcba
00000310: 6cd1 1ebb 7b21 cebb ff96 41bb f1ed b53b
00000320: b7bd babb 2970 f3b9 3512 88bb b8b1 9eba
00000330: 761f 75bb f9f7 783b 9f53 79b9 1472 a838
00000340: d0fd aa3b bc1d 80ba 7b58 863b 1bd4 d9ba
00000350: d2f6 73bb 82fc 983a 9703 16b9 57d2 97ba
00000360: 1ad7 703b 48d9 abbb 924c fdbb 65e3 9a3a
00000370: c5d4 79ba b608 963b 7b32 7e3a a316 603b
00000380: 8489 81bb 59fb 1b3b 1364 b13b 5ffe 203b
00000390: 6270 0d3b ecf7 633b 9ac6 1b3a af8f c13b
000003a0: 6b75 1d3c 3f91 3abb 570a 9fbb c14b 423b
000003b0: 983e 8cbb 1f80 c8bb 8c85 9439 efa4 f23a
000003c0: c673 c33b b535 bbbb 5db7 3d3b 85c0 44ba
000003d0: 1c9b fab9 1f42 9a3b 6c30 cfbb 8f6d 05bc
000003e0: 06cf af3b eec4 ad3b dbda 4bba 8432 fcba
000003f0: ea9f cd3b 28d3 673b 4468 6bbb 0591 f93a
0.011916964 0.009803702 0.0068981024 0.012304799 -0.012050715 -0.007404686 0.009122856 0.017349625
0.01373261 -0.015100202 0.0020445746 0.0027574701 0.0029020775 -0.004053245 -0.0030408127 -0.009078607
-0.011674931 -0.0060578445 -0.008302704 -0.0063175145 -0.007769578 -0.008828953 0.011010586 -0.00061446056
0.010532646 0.008033511 -0.010444608 0.0014932893 -0.00095121685 -0.0031839886 0.0021232802 0.0007381856
0.0052705077 -0.00567064 0.0043110945 -0.005683136 0.0032093807 0.0044821114 0.0028352018 0.00046769567
-0.0025766438 -0.0014035684 -0.0035159828 0.00274871 0.0048981374 -0.0026834651 -0.0031974076 -0.004997269
-0.0041052373 -0.004186435 -0.0043417662 -0.003936004 -0.004717008 0.0030949572 0.021125333 -0.0091428775
0.012430144 -0.0036819843 0.0060076504 -0.0065179523 0.013808611 -0.017684361 -0.00087720127 -0.015175384
-0.010584243 0.012930394 0.014651487 -0.007397378 0.013607041 -0.0064455126 -0.001546677 0.005537435
-0.004497776 -0.014474262 -0.0072847465 0.0039356803 0.018678626 -0.011542508 -0.0011702814 -0.00094985595
0.00040908935 0.0016170888 0.0023173015 0.003835292 0.002504774 -0.0023867202 0.0014501989 0.0035605615
0.0027057612 0.0021634304 -0.002891014 0.0034299265 0.0006176154 -0.004207124 0.0017977847 0.0009898973
0.0016539096 -0.00085013366 0.0005567667 0.00029647222 -0.0022315772 -0.00096657773 0.00011072578 0.0021692275
0.0019250187 -0.0024209826 0.0028040158 0.0013424235 0.0030608887 0.0010541417 0.0026027965 0.0034590568
0.0019013169 -0.001875263 0.0027114493 -0.0006076466 0.00036586306 0.00017578684 0.0022134187 0.0032895363
0.0015386585 0.003282172 -0.0033598065 -0.0015966635 -0.0005856174 -0.003999703 0.0017439347 0.00046525052
-0.0027503297 0.0010885667 0.0036786045 0.0034683873 -0.0036134515 0.0031085082 -0.0015245958 0.01284595
-0.019489598 -0.0051515894 -0.0031367696 0.009925458 0.016358668 0.01762331 -0.005461634 -0.0066044033
-0.009135882 0.0089088585 -0.005939295 0.013406791 -0.010931916 0.006780281 -0.006390398 -0.02129276
0.011381735 -0.004686412 -0.0002741178 -0.009285611 -0.005987383 0.0141213965 0.012537205 0.011424537
-0.010963408 -0.006650807 -0.004452045 -0.010414564 0.009818849 0.004206305 0.0019578773 0.0036392075
0.011949786 -0.0007421139 0.0040422254 -0.010218496 0.00521778 -0.0035165767 0.00060924527 -0.0046269447
-0.01268464 0.010720831 0.0023045565 0.0020235118 0.007971913 0.0027365664 -0.009318067 0.010775907
-0.0009389826 0.007687445 -0.008404322 -0.0015795282 -0.003043035 -0.0011120033 0.0037052406 0.0047827135
-0.0044168094 -0.0050427336 -0.002956913 -0.0014353738 -0.0024233712 -0.0062906123 -0.0029539464 0.0055520465
-0.0056988853 -0.00046432138 -0.004152561 -0.0012107408 -0.0037402785 0.00379896 -0.00023777642 8.032113e-05
0.005218245 -0.0009774487 0.004099903 -0.0016618998 -0.0037225974 0.0011671933 -0.00014306452 -0.0011583072
0.0036749304 -0.005244408 -0.007730075 0.0011817036 -0.00095303013 0.004578675 0.0009696853 0.003419318
-0.0039531607 0.0023800938 0.005413541 0.002456568 0.0021581878 0.0034785224 0.00059423747 0.005907021
0.009610514 -0.002846792 -0.0048535275 0.0029647204 -0.0042799227 -0.006118789 0.0002832826 0.0018512289
0.005964729 -0.0057131895 0.0028948404 -0.0007505494 -0.0004779928 0.0047075893 -0.006322911 -0.008143797
0.0053652553 0.005303017 -0.00077764475 -0.0019241129 0.0062751668 0.0035373662 -0.0035920301 0.0019040412

model/conv2d_1/Conv2D f4 [32, 1, 1, 16]
00000000: 40f7 f83d 2516 30be 7416 80be 6b33 d63d
00000010: ede1 b73e 66f1 42be b9bf 973e d808 d63d
00000020: 36cc 383e ae94 87be 9215 44be e285 5a3d
00000030: 84d3 983e 1efb 2dbe 9d83 3f3e 8fa0 913e
00000040: fc05 3e3e ea71 78be e89b 02be 0ec7 b23e
00000050: 619f 27be 9380 a2be dce8 733d e5bb 363e
00000060: 3c2a 83be c10b 843e fc9d afbe c795 6dbe
00000070: 7e75 88be befc 373d d83c 93be 57ea ddbb
00000080: 9b07 01be ab0d 983e 28fc 30be 66a0 a43e
00000090: cec8 463e ec46 eebd 8ecb 49be e03c 7dbe
000000a0: a6e2 0d3d f699 86be ca7f 77be a342 5dbe
000000b0: 2049 9c3e 9ed2 1a3d 36f6 ea3b 9afb bc3d
000000c0: d8fe f2bd 7d1d 26be 6258 96be cc78 3ebd
000000d0: 20c4 893e 5b1b 313e adcb 893d 528e 9dbe
000000e0: c0e5 5e3d eb61 a63e 971f 993e 26c4 5b3e
000000f0: ffdf 88bd 9b29 97be b5b5 a7be ae1c eebb
00000100: 1cf7 0eba 2e06 a5be 5eca 77be f2a0 c43d
00000110: 2c23 043e 95a4 25be 8cfb 783e e3c8 a23b
00000120: 70d7 593e 8a19 b6bd 3083 97be 3479 863d
00000130: 0da3 85be 52b1 1dbe c04f 9bbe 9ad0 2abc
00000140: c58c 8abe f76c a9bd 9099 3a3e 7f13 bb3d
00000150: 95b3 c3bd 30be 7fbe 76e7 28bd 65ec 90be
00000160: b305 873e 07c3 c7bd 4de4 fd3c d318 1cbe
00000170: 6209 293e 5d5d a9be d486 e93d 1d35 36be
00000180: 57fe 69be b072 7abd b531 a63e c434 1cbe
00000190: b4d7 a63e 0716 6fbe 5c40 56bd 62ec 68be
000001a0: 67d3 eebd 3fc1 21be 63d4 e63d 86c5 ad3d
000001b0: f7b9 a03e bfd2 abbe 35cf 9dbe eeb7 b83b
000001c0: 84be 933e 0a00 6f3d b1b4 cfba cb8d 3ebe
000001d0: 3fa7 21be 2b63 58be f51d af3e 8ca2 a5be
000001e0: e38f 6cbe c59d 8f3e 8ede 7bbe 99ba d6bd
000001f0: b41a b43e 7d27 90be 74c0 23be f8f3 7cbe
00000200: 5d81 98be 7398 8abe a03a f4bc 4eaa 28bd
00000210: 5635 8f3e 220f 55be f716 9dbd 73ef 7d3e
00000220: 1c2a f139 3b12 253e 8b6e a03d a1db c1bd
00000230: 7a88 8f3e 1aab 8abe 85f5 85be a44a 983d
00000240: 0eb7 77bd 1818 4abd 7c00 00be 8d84 1b3d
00000250: f89c 9ebe 74b6 b7be 843b 04be 317c 1b3e
00000260: 44a4 6d3e cc8d 813d 1697 643d 172d 8a3e
00000270: a9af 733c dbd4 b63e 0e06 933e 5e06 b53e
00000280: 1647 5f3e 3055 473e 4d4a fabd 7c98 b13c
00000290: 7506 9b3e 4938 a63d c4ab 8a3e baaf b33e
000002a0: 6941 153e 7522 ac3e a03a 1fbc d9ab c3bd
000002b0: f66e f0bd 5004 9e3d e419 28be 55b8 b63d
000002c0: 6e49 443e 7803 10be d5ab 113d 1f41 2f3e
000002d0: 885a 9f3e ca7a 31be 67da 6ebd b52c 42be
000002e0: 962d 803d 77de 833e 0311 f63d 1066 7dbe
000002f0: b770 9a3d 907e 0bbe c9f8 303e 3f21 173e
00000300: 6606 b13d 64ba b5bd c341 c4bd b4f4 9f3d
00000310: 9f41 6f3e c8b6 613d af42 a63e 7b36 a63e
00000320: 5a3e c9bd 0745 1bbe 6adf 60ba 71db 903e
00000330: c2e3 883d 704f 3f3e 778b 72be cc11 0dbe
00000340: 89ab 65bd 89e4 88bc 522a c4bd 2b32 523e
00000350: 8bb3 57be 533a 99be c27a e43d deef 22be
00000360: 9af3 83be 970f af3e 4379 43bd 5140 923e
00000370: ff36 ae3d 28dc 423d 5e1d 20be 564e a23d
00000380: bfd0 15be 0b20 88be 2c88 eb3d af6a e4bd
00000390: a5dd febb 6077 85bd 520f 733e 20e0 4b3e
000003a0: 4f6a 06bd 8e3c 403e 8d42 503e ad03 03bd
000003b0: c71c 58be 1e05 a03e 85b8 65be f559 99be
000003c0: 11ec 793d 360a 9c3e f381 733e 7b7e ff3d
000003d0: acf4 02be 6622 28ba b2fe fa3c ceed 9fbe
000003e0: 53ca cfbe 0855 573e 2502 e03d 7e0c 23be
000003f0: fe84 7fbe 1db9 b6bd a74a 853e 1582 80be
0.12156534 -0.17195947 -0.2501713 0.10459026 0.35914555 -0.19037399 0.2963846 0.104509056
0.1804665 -0.2648062 -0.19148853 0.053350337 0.29848874 -0.16990325 0.1870255 0.2844281
0.1855697 -0.24262205 -0.12754786 0.34917492 -0.16369392 -0.3173872 0.059548244 0.17845114
-0.2561816 0.25790218 -0.3430022 -0.23201667 -0.2665214 0.044918768 -0.28757358 -0.0067723203
-0.12600558 0.29697928 -0.1728369 0.32153624 0.19412538 -0.11634621 -0.19706556 -0.24730253
0.034639977 -0.26289338 -0.24169841 -0.21607451 0.3052454 0.037798516 0.007170464 0.09227677
-0.11865014 -0.16222186 -0.29364306 -0.04650192 0.26907444 0.17295592 0.06728301 -0.30772644
0.054418325 0.3249658 0.29906914 0.21461543 -0.06683349 -0.2952393 -0.3275582 -0.0072666025
-0.0005453692 -0.32231277 -0.2419829 0.096010104 0.12904042 -0.16176064 0.24314708 0.004967795
0.21273589 -0.0889159 -0.29592276 0.065660864 -0.2610096 -0.15399674 -0.30334282 -0.010425711
-0.27060524 -0.082727365 0.18222642 0.09134578 -0.09555737 -0.24974895 -0.041236363 -0.28305355
0.26371536 -0.097539954 0.030992651 -0.15243845 0.16507486 -0.33079043 0.114026695 -0.17793699
-0.22850929 -0.06114453 0.32459798 -0.15254503 0.32586443 -0.23348247 -0.05230747 -0.22746423
-0.116614155 -0.15796374 0.11270978 0.0848494 0.3139188 -0.33559224 -0.3082215 0.0056371605
0.2885629 0.058349647 -0.0015846697 -0.18608777 -0.15786456 -0.2113158 0.34202543 -0.32350576
-0.23101763 0.28050056 -0.24596617 -0.104848094 0.35176623 -0.28155127 -0.15991384 -0.24702442
-0.29786196 -0.27069435 -0.02981311 -0.04117804 0.2797038 -0.20806554 -0.07670396 0.24798374
0.00045998476 0.16120236 0.078335844 -0.09465719 0.2803381 -0.27083665 -0.2616388 0.074361116
-0.06047731 -0.049339384 -0.12500185 0.037968207 -0.30979133 -0.35881388 -0.12913328 0.15184094
0.23207194 0.06325874 0.05580815 0.26987526 0.014873424 0.3570927 0.28715557 0.3535642
0.21804461 0.1946609 -0.12221203 0.021679156 0.30278364 0.08116204 0.27084172 0.35095006
0.14575733 0.3362004 -0.009718567 -0.09554262 -0.11739914 0.07715666 -0.16416126 0.08921877
0.19168636 -0.14063823 0.035564262 0.17114685 0.31123757 -0.17331997 -0.058313753 -0.18962367
0.06258695 0.25755665 0.120149635 -0.24745965 0.0754103 -0.13622499 0.17282404 0.14758776
0.086437985 -0.08873442 -0.095828556 0.07810345 0.23364876 0.055105954 0.3247275 0.3246344
-0.09826346 -0.1516305 -0.0008578213 0.2829242 0.06684066 0.18682647 -0.23686014 -0.1377632
-0.05607179 -0.016710537 -0.095783845 0.2052695 -0.21064584 -0.2992731 0.11156227 -0.15911815
-0.2577179 0.34191582 -0.047723066 0.28564695 0.085065834 0.04757324 -0.15636203 0.07925098
-0.14630412 -0.26586947 0.11500582 -0.11153161 -0.007777887 -0.065169096 0.23736313 0.19909716
-0.032816228 0.187731 0.20337887 -0.031985927 -0.21104728 0.31253904 -0.2243367 -0.29951444
0.061016146 0.3047654 0.2378004 0.12475296 -0.12788647 -0.0006413817 0.030639026 -0.31236118
-0.4058405 0.2102853 0.10937909 -0.15922734 -0.24953076 -0.08922026 0.26033518 -0.25099245

model/separable_conv2d/separable_conv2d/depthwise f4 [1, 3, 3, 16]
00000000: 2d4e 493e e083 283e f3a5 e6bd 0b4d 01be
00000010: 4b6a 1dbd 19ce 173e 4a4e 1dbe dabd e43d
00000020: 4c79 0cbe 9c51 813d 1791 dbbd 0fb6 52bd
00000030: 38a1 2f3e bbde 313e a493 43be f2e6 b73d
00000040: 59b4 a2bc e162 5c3e c362 073e 2e2a 14be
00000050: 1778 02be 0750 223e 609c 50bd d11a 8c3d
00000060: 1ca1 dbbd 1dcf 35be 4ba6 c63c 2b50 12be
00000070: dd75 93bd 4fd5 05be a397 5c3d f849 34be
00000080: c471 d0bc 525a 2fbe 8c25 9d3d 66ef 963c
00000090: fd71 d6bd 58fd 2e3d 6708 0b3e 2b12 1a3d
000000a0: 45d1 0ebe cf7c 193e 898d 393e f593 883d
000000b0: 9e66 c73c 6594 e53d 0c5e e73d 4e12 8e3d
000000c0: 8f48 203e d553 b6bd 41ad 3a3e 758e 303e
000000d0: 57a5 28be 073d e23d 6901 ed3c fed4 843d
000000e0: e9d8 373e 8242 23be 630e e2bd bdee 0fbd
000000f0: 88ab 81bd f75e 453e 34dc 17bd 66f8 b1bd
00000100: 0307 8abd cad3 05bd e5ce e23d b218 26be
00000110: fdf2 0ebd 2548 313d 0739 47be b8df edbd
00000120: 8cfe 02be 3215 373e d82d 1f3e 9a2b 2bbe
00000130: 8f8d a33d d1ac df3d e8ed babd 8146 453e
00000140: cfea 873d cde9 00be cbed 20be 6b90 9dbd
00000150: e7e5 753b fa31 b43d dcc0 d2bd bd4a de3d
00000160: 6e90 c6bd 731e 7f3d 5f44 c53d 499a 0cbd
00000170: 1c46 0cbe cb0b 21be 6d39 463c 4d57 1c3e
00000180: 842b 3dbd 7bf2 153e a480 4cbe bfae 09bd
00000190: fda5 f5bd 3205 c0bd 7b45 2d3e c975 0b3e
000001a0: 9035 09bd 21e1 3dbd 65e6 b6bd 497e 4a3c
000001b0: 60b8 313e b6cf 183e a35b 463d b334 8cbd
000001c0: 4e66 683e ca94 27bd cead 143d e7a0 9abd
000001d0: 1600 773c 8fc4 1abe 6579 013e 32f9 b53d
000001e0: b8ee ef3d 6532 2abe 906f 28be 6cf5 30be
000001f0: f52b 043e 36eb 3c3e f3e4 87bc bd90 ea3c
00000200: 698d bfbd 6587 2ebd 69f3 8a3c 8256 0abe
00000210: 1ae7 9abd 2406 b33d c0c2 323e 47b4 d53d
00000220: 8baa 0e3e e186 163e 7ca6 e4bd a153 cebd
00000230: 953c 033e 2f46 d13c f458 4fbe e416 ffbd
0.19658728 0.16456556 -0.11262121 -0.12627046 -0.038431447 0.14824714 -0.15361896 0.11169024
-0.13718146 0.06314394 -0.10721033 -0.051443156 0.17151344 0.17370121 -0.19099289 0.08979596
-0.019861387 0.21522094 0.13221268 -0.14469215 -0.12741123 0.1585084 -0.05093038 0.06841052
-0.107240885 -0.17754789 0.024249217 -0.14288394 -0.07200215 -0.13069652 0.05385555 -0.17606342
-0.025444873 -0.17124298 0.07673177 0.018424701 -0.1047096 0.042722076 0.13577424 0.037614983
-0.13947017 0.14989017 0.18120398 0.066688456 0.024340924 0.11209945 0.11297235 0.06937085
0.15652679 -0.089027084 0.18230154 0.17241843 -0.16469322 0.11046796 0.028931336 0.064859375
0.17953838 -0.1594334 -0.110379 -0.035139788 -0.06331545 0.19274507 -0.037075236 -0.08689956
-0.06739619 -0.03267268 0.11074618 -0.16220358 -0.0348997 0.043281693 -0.19455348 -0.116149366
-0.12792414 0.17879179 0.15544832 -0.16715851 0.079859845 0.10921634 -0.09127408 0.19265176
0.06636583 -0.12589188 -0.15715711 -0.07693561 0.0037521066 0.08798595 -0.10290691 0.10854099
-0.096955165 0.062284898 0.096321814 -0.034326825 -0.1369862 -0.15727155 0.012098652 0.15267678
-0.046184078 0.1464328 -0.19970948 -0.033613916 -0.119945504 -0.09375991 0.16921036 0.1361915
-0.033498347 -0.046357278 -0.08930663 0.01235921 0.1735549 0.14922985 0.048427235 -0.06845989
0.22695276 -0.04091338 0.036298566 -0.07550221 0.015075704 -0.15114044 0.12643965 0.08885421
0.11715454 -0.16620786 -0.16448808 -0.17281121 0.12907393 0.18449101 -0.016588664 0.02863347
-0.09353144 -0.04260959 0.01696177 -0.13509563 -0.075636104 0.087414056 0.17457104 0.10434776
0.13932244 0.1469989 -0.11164567 -0.10074545 0.12816079 0.025546161 -0.20248777 -0.12455538

model/separable_conv2d/separable_conv2d f4 [32, 1, 1, 16]
00000000: d1a5 3ebe 09da 87bf af85 bf3e 266e b2be
00000010: b91f cd3f 3eb9 fe3e 9226 a5bf 01f5 e6bf
00000020: 15b6 ee3f 27ac 8dbe c52a ec3f 257a 653f
00000030: a142 dc3f 9b72 82be 4b0d 983f 4379 a2bf
00000040: 30c5 edbf 2418 203f 8895 be3f fd88 863c
00000050: fa6c ea3f d87e bbbd 8c41 d4be b6c6 1bbf
00000060: 1cc3 cf3e 8b55 febe 0bb2 0cc0 a7ab aabf
00000070: 2e28 b23f 7d4a 583f 3886 09c0 efae b13f
00000080: 1bee bfbf cb44 e53d e33b 93bf 6d46 a1bf
00000090: 9948 e6be baa1 e9bf 7230 fe3e 6c11 cebf
000000a0: 8080 c5bf c58a 7e3f 96cc 903f 31e0 4fbf
000000b0: 0afb 4b3c 1604 93bf 1f4f 1b3f 3ec2 363f
000000c0: ef05 4a3f 8584 67bf 008f 953f 8032 afbd
000000d0: 673c 99bf 5deb ff3f f0c2 11be f125 f23f
000000e0: d0ee c7bf 0222 84bf 51c2 9bbf 8a44 3e3e
000000f0: 7803 14bf 1686 9bbf a79a fbbf dc3d d63e
00000100: 894c 80bd ac38 7dbf 8b04 d4be 9bc7 9fbf
00000110: 7855 6dbf 808e 903f 9564 433f 8292 203e
00000120: f975 353f 22cb 383f 66c5 32bf 0452 5bbf
00000130: 7609 86be f8b1 94be 860e 8cbf e6bc 863f
00000140: 0ff8 46bf d3c8 db3f a772 a5bf 1ffe 99bf
00000150: a52a db3e d537 ea3f 85de 2cbf fdee 9f3f
00000160: 4118 17bf 39fe 003e 55c5 cbbf 87ec d5bf
00000170: 9ea0 ec3e 7a66 4a3e f2f8 923c 9aff d33f
00000180: 5cf9 1fbf 3a40 b33f 713a b43f 774d 05bf
00000190: 4dea d53f afe8 d63e e5e0 97bf 0f0f 173f
000001a0: e47a d73f d1e5 6cbf 9e9f 77bf ae0e 4d3f
000001b0: 6213 dbbe 0e9f f63e a850 a33f 1bf5 243f
000001c0: 4d8b 2ebf 76d9 a83f dd9c 423d 67fa b5bf
000001d0: 17e9 473d f08b 29c0 bf4f 1e3f 6e62 663f
000001e0: ded8 34be 50e9 953f 68ee 2fbf 207d dbbf
000001f0: 5ac7 d63f 2f30 9f3e b60f c73f 3876 0c40
00000200: a247 61bf 1cd8 2bc0 d13a d5bf 39a0 923e
00000210: abfc e4bf 55a7 bfbf 4a97 dcbf 56eb a53f
00000220: cede da3f da38 04c0 d01b 223e bb3f 0c3f
00000230: 0dea 09c0 2552 0fc0 af35 aebf ab8c ac3f
00000240: 818f 91bf f191 363e 7516 1a3f fdfc 96bf
00000250: 6556 523e efd2 773f abf5 463f 1f1d e13e
00000260: 2a62 47bf 1e85 663f f3e1 a33f dfc9 aabf
00000270: 73c0 053f 51d3 853f 87dd 793f f2d3 c5be
00000280: 849e afbf 86fd c4bc 0fd0 6c3f 2377 b33f
00000290: 301e 1e3f e6be a5bf 06ac 14be 6ec1 653f
000002a0: 863f ddbf baac 633f fc05 d43f 1e75 12bf
000002b0: 05ef d8bf d8fb 94bf a368 b9bf 0fed a8bf
000002c0: 48cf c0be 2f05 393f 6f9c 193f 81ee 5c3f
000002d0: 9dda 603f 2c69 403f 4b7d f7be e3c5 7d3f
000002e0: bf69 363f 1d39 a63d ad9b 63bf eb2f 073e
000002f0: e3e3 dfbe 0de5 fbbe 312f 133f ed91 743f
00000300: 3322 f83c 338c 9fbf 16b8 303f 9945 403f
00000310: 3411 d7bf bfa1 d53e 8238 ab3f 4524 e53f
00000320: 5cc4 74bf f861 a2bf 048c 2a3e 82d1 1bbf
00000330: 0b49 e73f 4a4c 9d3f 923a 923f 545c 73be
00000340: b07a 743f 928a c23f 54a7 543f d7c7 8b3f
00000350: 013a 7b3d b41d abbf 8a42 d73f 7d93 f8bf
00000360: 7430 11bf 9267 5ebf 566e 9f3f d14c 433f
00000370: 1db5 443d fc08 03c0 6042 aebe f1a0 0b40
00000380: b5e7 763f 6275 f13f d090 ec3f 59f0 b9bf
00000390: b98b 003f 8b8b 84bf f9f9 853f 653d 95bf
000003a0: e6f1 513f 83eb ef3f 4737 22bf f037 ca3e
000003b0: bce5 c03f 6835 dcbf a34d c6bf fca9 e03f
000003c0: 6dc0 c0be 68dc 39bf f7ae 703f 4573 4abe
000003d0: e4a2 c1be 3b77 3abf 89ef 40be 68e9 72bf
000003e0: 0979 a4bf 8dbb a4bf 8c22 c63e 17f6 9fbf
000003f0: ac91 933e 9399 703f 922d 9d3f 9705 a23f
-0.18617941 -1.0613414 0.3740668 -0.34849662 1.6025306 0.49750704 -1.2902396 -1.8043519
1.8649317 -0.27670404 1.8450552 0.896395 1.7207834 -0.25478062 1.1879057 -1.2693256
-1.8575802 0.62536836 1.4889383 0.016422743 1.8314507 -0.09155053 -0.41456258 -0.60850084
0.40578544 -0.4967464 -2.1983669 -1.3333634 1.3918512 0.8448866 -2.148817 1.388151
-1.4994539 0.11194762 -1.1502651 -1.2599617 -0.44977263 -1.825248 0.49646336 -1.6099067
-1.542984 0.99430496 1.1312435 -0.81201464 0.012449989 -1.1485622 0.60667604 0.7139014
0.78915304 -0.90436584 1.1684265 -0.08554554 -1.1971558 1.9993702 -0.14234519 1.8917829
-1.5619755 -1.0322878 -1.2168676 0.18580833 -0.5781779 -1.2150295 -1.9656571 0.4184407
-0.06264598 -0.989146 -0.41409716 -1.248279 -0.9270854 1.1293488 0.7632535 0.15680888
0.70883137 0.72184956 -0.69832456 -0.8567202 -0.26179093 -0.2904203 -1.0941932 1.0526397
-0.7772226 1.7170662 -1.2925614 -1.2030677 0.42805973 1.8298289 -0.6752704 1.2494808
-0.59021384 0.12596978 -1.5919596 -1.6712807 0.4621629 0.19765654 0.017940972 1.6562378
-0.6248987 1.4003975 1.4080335 -0.52071327 1.6712128 0.41974398 -1.1865507 0.5900735
1.6834378 -0.9253817 -0.9672793 0.80100524 -0.42788225 0.48168224 1.2758989 0.644365
-0.68181306 1.3191364 0.047512878 -1.4217042 0.048806276 -2.649166 0.6184043 0.8999394
-0.17660853 1.1711826 -0.68723154 -1.714756 1.6779587 0.3109145 1.555167 2.1947155
-0.8799993 -2.6850653 -1.6658574 0.28637865 -1.7889608 -1.4972941 -1.723367 1.2962444
1.7099245 -2.06597 0.15830922 0.54784745 -2.1549103 -2.2393887 -1.3610133 1.3480428
-1.1371919 0.1782911 0.60190517 -1.1795956 0.2054077 0.96806234 0.7771861 0.4396753
-0.7788416 0.9004687 1.2803329 -1.3342856 0.5224678 1.0455114 0.9760365 -0.38638264
-1.372025 -0.02404667 0.9250497 1.4020733 0.6176481 -1.2948883 -0.14518747 0.89748275
-1.7285011 0.88935435 1.6564326 -0.57209957 -1.6947943 -1.1639357 -1.4485058 -1.3197345
-0.37658143 0.72273535 0.60004324 0.8630143 0.8783358 0.7516048 -0.48337778 0.99130076
0.71255106 0.08116362 -0.8890942 0.13201873 -0.4372855 -0.4919819 0.57493883 0.95535165
0.030289745 -1.246466 0.6903089 0.751062 -1.6802125 0.41724965 1.337662 1.7901694
-0.9561212 -1.2686148 0.16654974 -0.6086656 1.8069166 1.2288907 1.1424124 -0.23765689
0.95499706 1.5198538 0.8306782 1.0920361 0.061334614 -1.336844 1.6817181 -1.942001
-0.5671456 -0.86876786 1.2455547 0.7628909 0.048024286 -2.0474234 -0.34035015 2.181698
0.96447307 1.8863947 1.8481693 -1.4526473 0.502132 -1.0355085 1.0466911 -1.1659361
0.8200973 1.8743747 -0.63365597 0.39495802 1.5070109 -1.7203798 -1.5492443 1.7551875
-0.3764681 -0.7260194 0.94016975 -0.19770534 -0.37819588 -0.7283818 -0.18841375 -0.948874
-1.2849437 -1.2869736 0.38698232 -1.2496976 0.28822076 0.93984336 1.2279532 1.2657956

model/separable_conv2d_1/separable_conv2d/depthwise f4 [1, 3, 3, 32]
00000000: dfe2 18be bc24 ebbd 8d46 903c a6de 883d
00000010: a3cb b8bd 3257 17bd 25eb 1fbd 1c69 dd3d
00000020: 5bfb 02be 3836 8e3a 9728 ab3d 85ac 65bd
00000030: f1ee f9bd 10b7 0fbe cfc6 8fbc 3465 00be
00000040: 9b25 ae3d 4a31 a33d 461b 9e3d 6199 ac3c
00000050: 669c 793d 8375 8dbc 48c5 efbd 9b90 dc3d
00000060: 3de5 6e3d 67e8 b43d e7c5 73bd 64a4 09be
00000070: d626 043e 302b 753c 23ef 5d3d 4b8c 22bd
00000080: 6075 483d 699b 583c 84ad 05be 540a b93c
00000090: f05c b63d 2117 133e 1504 c7bd b59b 62bd
000000a0: 09cb 5f3d 1bdb e23d dce4 e1bd 90eb c33d
000000b0: 8eee d83c 8651 333e 9e50 e03d fc7a 07bd
000000c0: 5273 24bd ebaf 8a3d 27d5 c13d 62e1 173e
000000d0: ba9d 88bd de22 393d e613 e7bd 1882 103e
000000e0: 1655 1f3e 8d72 e13d 056f b13d 302c af3c
000000f0: a3df fc3c 0cb8 e3bd b9d0 30be cc53 bfbd
00000100: 1003 243d e3ce ca3d de8a 85bd ad73 1bbd
00000110: c3ed b93d d4f3 88bb 8887 be3d fcda 07be
00000120: 6231 1abe 4492 0e3e 4e2d 39bb a39e e7bd
00000130: d23f 7cbd 1d7b 21ba ef1f 0b3c a96c b9bd
00000140: 9778 9d3d 81c6 e13d db76 a23c e53c e43c
00000150: 84dc aa3c ebd9 a13d 108a 853d 5739 b73d
00000160: 2ba0 63bd 2199 d93c 303c db3d 87d5 933c
00000170: 63c1 973d 376b 763d cd44 eb3c f2c2 b7bc
00000180: c513 0abd ae17 88bd 368e 03be 33cc c73d
00000190: 73eb ecbd bd6d 6fbd 6b32 f8bd 6f2a d0bb
000001a0: c7e0 fd3d a345 02be f4c6 8e3d a43b 56bd
000001b0: 0188 ed3d 5ce7 cdbd 0927 fabd 4580 0fbe
000001c0: 9b7e 9cba e5db a9bd c7af 23bd 4e67 b93d
000001d0: bdfa 4bbb 8e79 cdbd d61c 0a3e 2a63 01be
000001e0: f0c0 d6bd 0f67 f83c 2a0b 8abd 4c5d acbd
000001f0: 4c15 aa3d 4f87 b03a 7f31 493c 6c51 233d
00000200: bbad 5b3c 4eee 103e f867 ef3d dff8 04be
00000210: e458 f2bc a968 7bba 14d3 75bd 36c3 a03d
00000220: f62e a93d ccaa 1abe d7b8 b43d 5264 edbd
00000230: 10e3 d83d 8b29 8d3d 4b08 1a3e a1fb 003e
00000240: 3d9f 0dbe c15c 3d3d 8557 04be f2f9 8abc
00000250: 9457 f23c d99e d6bd c7e9 103d 864c a3bd
00000260: 5c02 e13d d5c8 8d3d 1639 e13d 8a16 a7bc
00000270: 829c fb3d 4a9d fabd c967 ebbd af2c 3f3e
00000280: e815 093e 8833 eebd 670e 58bd 078f c03d
00000290: f394 713d 5a29 ccbd 5e17 d23c d590 80bd
000002a0: da48 6ebd 4b4a a23d 88c1 aa3d edbb 273d
000002b0: 2287 ebbd 11da 1b3d 5b4d e8bc a55e 42bd
000002c0: d4dc 9c3d b656 97bd aac3 0b3d 8ec6 0a3e
000002d0: 1e9a 163e 0f11 473d 6e5e 0abe e915 dfbd
000002e0: ac76 893d ae00 a33d 8284 dcbc ef33 29bd
000002f0: f6c0 74bd 615a dcbd 9006 f5bd 1e1e 2bbd
00000300: 0072 03be 224a e0bd cc74 853d 3d14 8dbd
00000310: b19b 573d 2045 5ebd a6a4 453d 17a1 e0bd
00000320: 665a ec3d f35e 29bb 0a63 abbd 7926 043e
00000330: 4c8f eb3c 6437 d6bd c2fb 913c d758 d0b9
00000340: c80f 13bd a436 59bd aa60 ba3d 5678 91bd
00000350: 35fd 9dbd e739 1abe fec9 87bd 0d43 0c3c
00000360: fa64 08bd 713d 63bd 2afe 87bd 0c36 bdbd
00000370: 9dcc 903d a090 1abd e396 203e e43a 06bd
00000380: 4446 253d 364d 2c3d 5a78 c5bd e929 ba3d
00000390: d0f7 1439 cfad 94bc 4ece 1a3d f6dd fdbd
000003a0: e908 98bc 37ce 05be b36d 99bc 206a 083d
000003b0: 79b7 85bd 09f4 063e fa51 d5bd 441a 0c3e
000003c0: 2d93 c6bd e2e4 2cbe f863 2ebe c403 0ebe
000003d0: 0891 333c 979e af3c 2eb8 6ebd d2e0 8d3d
000003e0: c326 963d c775 153d ad9b 143d 79d7 e03d
000003f0: f7e1 92bc 383b cd3d 9df6 223d e73f 10be
-0.14930294 -0.11481616 0.017611766 0.06683092 -0.090232156 -0.03694839 -0.03904261 0.10811064
-0.12791197 0.0010849899 0.08357351 -0.05607273 -0.122037776 -0.14034677 -0.017550854 -0.12538606
0.085032664 0.079683855 0.07720046 0.02106923 0.06094017 -0.017267948 -0.1170755 0.10769769
0.058324087 0.0883339 -0.059514906 -0.13441616 0.1290544 0.01496391 0.054183137 -0.039684575
0.048940063 0.013220646 -0.13054472 0.022587933 0.08904445 0.14364292 -0.097175755 -0.055324275
0.05463699 0.11076947 -0.110299796 0.09566414 0.02648094 0.17511567 0.109528765 -0.03307627
-0.04014904 0.06771835 0.09464484 0.1483207 -0.06670709 0.045199268 -0.11283092 0.14112127
0.15559801 0.11008177 0.086637534 0.021383375 0.030868357 -0.111190885 -0.17267121 -0.09342155
0.040041983 0.09902742 -0.065206274 -0.037952114 0.090785526 -0.004179457 0.09303194 -0.1326713
-0.150579 0.13922983 -0.0028255763 -0.113095544 -0.0615843 -0.0006160008 0.0084915 -0.090539284
0.07689016 0.1102419 0.019832065 0.027861068 0.020857103 0.07902893 0.06520474 0.089464836
-0.05557267 0.026562275 0.10704839 0.018046154 0.074099325 0.06016084 0.02871933 -0.022431824
-0.03371026 -0.066451415 -0.12847218 0.09755745 -0.11568346 -0.058454264 -0.121189915 -0.0063527147
0.123963885 -0.12721877 0.06971541 -0.05230297 0.11598206 -0.10053894 -0.122144766 -0.14013775
-0.0011939587 -0.08293895 -0.039962556 0.09052907 -0.0031124793 -0.1003295 0.13487563 -0.12635484
-0.10486019 0.03032258 -0.067404106 -0.084162325 0.08304843 0.001346806 0.012279867 0.03987257
0.01340812 0.14153406 0.11689752 -0.12985562 -0.029583402 -0.0009590486 -0.060015753 0.078497335
0.0826091 -0.15104216 0.08824318 -0.115914 0.10590184 0.06892689 0.15042226 0.12595989
-0.13830276 0.046231035 -0.12924011 -0.016964886 0.029582776 -0.104795165 0.035379197 -0.0797358
0.10986778 0.06923071 0.109972164 -0.02039649 0.12285711 -0.12237032 -0.11494405 0.18669389
0.13387263 -0.116309226 -0.05274811 0.0940228 0.05897994 -0.09968825 0.025645908 -0.062776245
-0.058174945 0.079243265 0.083376944 0.040950704 -0.11500384 0.03804976 -0.028357198 -0.04745354
0.07659307 -0.07389586 0.034122147 0.13552305 0.14707229 0.048600253 -0.13512585 -0.10892851
0.06712088 0.07959114 -0.026918653 -0.041309293 -0.059754334 -0.10759426 -0.11964142 -0.04177677
-0.12836456 -0.1095164 0.06516418 -0.06888626 0.052638713 -0.05426514 0.048252724 -0.109682254
0.1154068 -0.0025843948 -0.083684996 0.12905301 0.028754853 -0.10459784 0.017820243 -0.00039739042
-0.035903722 -0.053030625 0.091004685 -0.071030304 -0.07714311 -0.1506115 -0.06630324 0.008560908
-0.033299424 -0.055478517 -0.06640275 -0.09238824 0.07070277 -0.03773558 0.15682559 -0.032771006
0.040350214 0.04206582 -0.09642096 0.09090025 0.00014206697 -0.018149285 0.037794404 -0.12395851
-0.018558936 -0.13066946 -0.018729066 0.033304334 -0.06529135 0.1317903 -0.104160264 0.13681895
-0.0969604 -0.16884187 -0.17030323 -0.13868624 0.010959871 0.021437926 -0.058281116 0.06927647
0.07331612 0.036489274 0.036281276 0.10978598 -0.017930014 0.10021061 0.03978597 -0.14086877

model/separable_conv2d_1/separable_conv2d f4 [32, 1, 1, 32]
00000000: d99f b3bf 112f a9bf 636c 1240 3506 9bbf
00000010: 61d5 fc3f 4356 a0bf 84bf e13e 758a 0d40
00000020: a9fa de3f 9128 81be 0838 013f a01e 87bf
00000030: c277 babe 961f 0dbf c5a5 dfbf 2b2d fc3e
00000040: 28b0 18bf 2ba6 c53c 2040 b53f 9c5a babf
00000050: 5ad9 de3f 6197 7abf ab19 6a3f 9438 603f
00000060: 6fd0 b73f 6693 d4bf bde6 7d3e 9381 c8bf
00000070: d2ce b4bf d163 c03f 975f 52bf 8d79 50bf
00000080: 0c09 b23f ba0a 1cbf 9198 bfbf 2fbb 20c0
00000090: 1155 803f 649b a0bf cbe3 c53e b014 d7bf
000000a0: 0f43 e53f 3bf2 58be 7899 dabf 8950 173f
000000b0: c18d 633f 83f7 0040 dad1 da3f e3df bc3f
000000c0: 3d83 773f 3537 00bf 7dac dc3f 650d 80be
000000d0: 4248 ec3e e2d0 9ebf 7aee b43f 36da b9bd
000000e0: 3ffe e63f 8611 05c0 18b1 ed3e 9ffd 153d
000000f0: 6bf3 e43f f806 8f3f 7ab8 6c3f 48a1 3b3f
00000100: 854a b23f d282 61bf 76f2 a33f 6ff4 a6bd
00000110: ae76 283f cd7a df3f 17fb cebe f340 c0bf
00000120: 9957 72be f50b c93f 07e9 a43c 13a4 e13d
00000130: b409 96bf 75f5 80bf 4942 40bf a401 bd3e
00000140: 6d88 78bf 1086 18bf 943c 383f 5f10 1c3f
00000150: 148c 3e3f 8cfa 8c3d 2fed e4bd 547d 8cbf
00000160: f09a 6abf ee12 3cbf 941c c43f d832 dbbe
00000170: 2508 ddbd 393b 85bf 116f 97bf a891 db3f
00000180: 769f 0fc0 2c80 643f 2a7f 92be 905b 5cbf
00000190: dfa9 723f fb03 86bf d9a2 ddbf aa10 8dbf
000001a0: 58e5 ddbf a3cb 08bf 9fb5 f73e dc33 febf
000001b0: 815c 143f 7b1b f0bf 07a9 28bf 0696 ec3f
000001c0: e37c 863f d340 efbe fef3 94be 5c81 4abf
000001d0: 5223 0cc0 8dd9 08c0 1525 0ebf 67d2 ed3e
000001e0: d7dd b8bf 8065 bb3f d7a8 dfbe 934e 9f3f
000001f0: 576c c3bf 4384 713f 5e82 40bf 21d6 aebf
00000200: 9b1b adbf 3e52 f83e edaf 5b3e 8e2e b03f
00000210: afbd 54bd 699b a3bd 2cff 64bf 814e dcbf
00000220: 2325 6ebf 937c 1ebf d153 8abf c156 aebf
00000230: 9786 c93f 7fa5 13c0 7048 97be 265a 963f
00000240: 0d75 9fbf d1f3 28c0 9f1f e73d 6977 2040
00000250: ea71 4040 742d 30bf c107 3a3f faba b83e
00000260: bfb4 343f a399 0ebf c15a f6bf 62fa c6be
00000270: 1dcd 813f dabb f93e e027 0740 be45 7cbf
00000280: 61c2 ddbf 7aea 2b3f 5902 a83f efb8 143e
00000290: 8f48 863f 83e6 eb3f 6c81 b03f d8c0 2fbf
000002a0: 39a2 44bf c804 c33e b63d e03e fda6 ee3f
000002b0: b42a bbbf 326d b83f 1148 a83f a8a1 e6be
000002c0: 34c9 10bf 9ea6 be3f eed6 983f f20f 4f3f
000002d0: af37 65bf fc9b 86bf 1ef6 86bf 0262 b3be
000002e0: ad6c 4f3f 4604 d33f a445 10c0 f99b f93f
000002f0: c1fa 9b3e 58b1 c43e ee6c dbbf 874c bb3f
00000300: be75 a1bf ec43 ddbf 2d5e 27bf 925a ff3f
00000310: b28b 433f 50ca 5b3f 389b 9cbf dcbf bcbf
00000320: e6f7 dabf 4ed8 6bbe 5adf c03d 5db5 c73f
00000330: f39f 0b40 cf02 a03f ab30 943d c593 ebbf
00000340: 5ddb 973f a409 fd3f e10d 63be fc1d 61be
00000350: 584d 463f 8773 4e3f 4fe1 003e 21b5 29be
00000360: 17e8 13bf 163b 163f 9a41 9b3f 9b22 4dbf
00000370: 9813 be3f 0174 22bf ee62 7f3f 5d71 1abf
00000380: db59 993e 6fe3 e73e 76d0 a6bc 51a1 adbf
00000390: 7505 f1be 3062 5dbd a810 0fc0 5674 04c0
000003a0: d321 0040 754b 06c0 7c73 633f 3cc7 25bf
000003b0: 28f2 4a3f 99f7 fbbf 2747 1340 0f32 70bd
000003c0: 71f5 8c3f f0f4 253f d71b 653f 00c0 9b3e
000003d0: a432 d4be f991 d8bf 586b 2a3f 7fd6 9a3f
000003e0: c7dc 83bf 04d1 b33f 5aae c93f ecf3 9e3f
000003f0: eb01 e5be 7944 acbf a3a6 f83f 2b84 bcbf
-1.4033157 -1.3217489 2.2878654 -1.2111269 1.9752618 -1.2526325 0.44091427 2.2115757
1.7420245 -0.25226262 0.5047612 -1.0556221 -0.36419493 -0.5512632 -1.7472464 0.4925321
-0.59643793 0.024127087 1.4160194 -1.4558902 1.741008 -0.97887236 0.91445416 0.8758633
1.4360484 -1.6607482 0.24795051 -1.5664543 -1.4125617 1.5030462 -0.8217711 -0.8143547
1.3909011 -0.6095387 -1.4968435 -2.5114248 1.002596 -1.2547421 0.38650355 -1.6803188
1.791109 -0.21186154 -1.7078085 0.5910726 0.88888174 2.015107 1.7095292 1.4755825
0.9668463 -0.5008424 1.7240139 -0.2501022 0.46148878 -1.2407496 1.4135277 -0.090748236
1.804634 -2.0791945 0.46424174 0.036618825 1.7886785 1.1174002 0.9246899 0.7329297
1.3928992 -0.8809024 1.2808368 -0.08152091 0.6580609 1.7459351 -0.4042594 -1.5019821
-0.23666228 1.5706774 0.020130647 0.11017623 -1.1721711 -1.0074908 -0.75101143 0.36915314
-0.9708317 -0.59579563 0.71967435 0.6096248 0.7443249 0.068837255 -0.11178052 -1.0975747
-0.91642666 -0.73466384 1.5321221 -0.42812228 -0.10792569 -1.0408698 -1.183077 1.7153826
-2.2441077 0.89258075 -0.28612643 -0.86077213 0.9479045 -1.0469965 -1.7315322 -1.102071
-1.7335615 -0.53435725 0.48380753 -1.9859576 0.5795365 -1.8758386 -0.65882915 1.8483284
1.0506862 -0.46729144 -0.290924 -0.79103637 -2.1896558 -2.1382782 -0.5552533 0.46449587
-1.44427 1.464035 -0.43683502 1.2445854 -1.5267438 0.9434244 -0.75198925 -1.3659097
-1.352405 0.48500246 0.21453829 1.3764207 -0.05193871 -0.079886265 -0.8945186 -1.7211457
-0.93025416 -0.61908835 -1.0806829 -1.3620225 1.5744199 -2.306976 -0.29547453 1.1746261
-1.2457596 -2.6398814 0.11285328 2.5072882 3.0069528 -0.68819356 0.7266808 0.36080152
0.70588297 -0.5570318 -1.9246446 -0.38862902 1.0140721 0.48776132 2.1118088 -0.9854392
-1.7324945 0.6715466 1.3125716 0.14523672 1.0490893 1.8429722 1.3789496 -0.6865363
-0.7681003 0.38089585 0.43797082 1.8644711 -1.4622407 1.4408324 1.3146993 -0.4504521
-0.5655701 1.4894598 1.1940591 0.80883706 -0.8953809 -1.0516353 -1.0543859 -0.35035712
0.810252 1.6485679 -2.2542505 1.9500724 0.30464748 0.38416553 -1.7142618 1.4632729
-1.2614057 -1.7286353 -0.65378076 1.9949515 0.76385033 0.8585558 -1.2234869 -1.4746051
-1.7106903 -0.23031732 0.09417601 1.5602223 2.1816375 1.2500857 0.07235845 -1.8404471
1.1863819 1.9768567 -0.22173263 -0.21984094 0.7746177 0.8064503 0.12585948 -0.16573001
-0.57776016 0.5868391 1.2129395 -0.8013093 1.484973 -0.6345826 0.9976033 -0.6032923
0.29951367 0.45290706 -0.020363074 -1.3564855 -0.47074476 -0.054048717 -2.2353916 -2.0696006
2.0020645 -2.0983555 0.8884809 -0.6475713 0.7927575 -1.9684936 2.3012178 -0.05864149
1.1012403 0.6482687 0.89495605 0.30419922 -0.41444886 -1.6919547 0.66570044 1.2096709
-1.0301751 1.4048162 1.5756333 1.2418189 -0.44728026 -1.3458396 1.9425853 -1.4727834

model/conv2d_2/Conv2D f4 [32]
00000000: 0000 0000 0000 0000 0000 0000 0000 0000
00000010: 0000 0000 0000 0000 0000 0000 0000 0000
00000020: 0000 0000 0000 0000 0000 0000 0000 0000
00000030: 0000 0000 0000 0000 0000 0000 0000 0000
00000040: 0000 0000 0000 0000 0000 0000 0000 0000
00000050: 0000 0000 0000 0000 0000 0000 0000 0000
00000060: 0000 0000 0000 0000 0000 0000 0000 0000
00000070: 0000 0000 0000 0000 0000 0000 0000 0000
0.0 0.0 0.0 0.0 0.0 0.0 0.0 0.0
0.0 0.0 0.0 0.0 0.0 0.0 0.0 0.0
0.0 0.0 0.0 0.0 0.0 0.0 0.0 0.0
0.0 0.0 0.0 0.0 0.0 0.0 0.0 0.0

model/conv2d_2/Conv2D1 f4 [32, 1, 1, 32]
00000000: 0c75 073c cd88 23be 4402 0dbe a656 19be
00000010: b87f ef3d 0876 1c3e d35f 8d3e 9622 503e
00000020: 2ef4 e93d e5dc 48be 6dd4 603e 7edb 7d3e
00000030: c5d1 7abd b901 2dbe 79e0 91be 1215 003b
00000040: 0daa 65be 1bfb 2cbe d0d5 82bc 783b 743e
00000050: 2f4f 76be 19ef dbbc bc88 e0bc f85d 0b3d
00000060: 1130 6a3e f77e c03d dc8f 8a3d 089c 873e
00000070: b5c2 8bbc b74c 2d3e 408d 0dbc 5deb 8dbe
00000080: 6e60 81be 0fa2 a03d 8a3f 6a3d 43ad 2f3e
00000090: f8c0 84be 9794 083e fa80 893b b1d5 53bd
000000a0: 2726 f93d fdca 803e afcb 503e 0689 6a3e
000000b0: 3886 8c3d 0c3f 683c 0fa2 8bbe 46fd f1bb
000000c0: 11d8 113d b9dc 8f3e 7895 31be 25de 593e
000000d0: cb31 013e d2dd e0bc 987e 9d3e 1824 343e
000000e0: 57ec 26be 7a89 993e aa69 513e ec08 56be
000000f0: 33ef cc3d c8a4 5f3d 0224 3f3d 382e b1bd
00000100: a001 60be 3562 6abe bb15 923d 391c 64bd
00000110: 5a4f 4e3d 8aa8 0f3e daae 973e b1de 1fbe
00000120: 5aba 973d 280a 96be a368 253e 3cdc 7bbe
00000130: fe5a f83d 2069 3bbd 3cab 0dbe 6bbc 0d3e
00000140: 066c 1b3e fb3f 06be a9e6 d7bd 9565 2abe
00000150: ecea aebd 1827 90be 6d25 33be cb59 633d
00000160: 2b42 01be 5253 9f3d acf0 87be 8d6a 943d
00000170: 7eaa a23d d939 b5ba 5eb4 47be 7e0c 09bc
00000180: 4f77 7e3e 7005 923e d751 4dbe b3d9 3cbe
00000190: 363b 043e f2cd 94bd bcf5 3dbe 29bd 85be
000001a0: d264 7a3e 31e6 2a3e ff7e ac3c 31f0 fabc
000001b0: 744e 263e 8ff8 5d3e 9d0b ff3d 43e6 a4bd
000001c0: e09a fc3d 650a 08bc 23e6 5bbe 9103 e73d
000001d0: b0d9 c93d 3d27 0e3d 9a87 0eba f82f 2e3e
000001e0: bb68 fb3d 74f8 5b3d f377 603e 95f4 3fbe
000001f0: f683 64be d9e8 7b3e 5b9c 9d3e bfa7 8c3e
00000200: 2447 3abe aee8 93be 0ecb 2ebd 1027 8abd
00000210: 4216 78be 8011 babd 1537 9abe 8880 6dbe
00000220: 5f15 02be 73f7 67be 318e 0ebe c270 17bd
00000230: dc66 8c3d 5660 8bbe 7103 3a3e c698 363e
00000240: 3cfc 2f3e e02c 60bd 60e4 d2bd 5265 593e
00000250: 57d3 abbc aa7c ea3c 90b6 373d adea 8ebe
00000260: ebfd 633e 009d d73d 08de 64be bce4 903e
00000270: e783 6bbe 1d31 223e c93f 27be 4fcd 1b3e
00000280: baf0 dcbd b872 97be 96d2 7e3e 6dc6 263d
00000290: b3f6 80be 1824 82be 6e22 25be 5d5c 313e
000002a0: f2e5 a9bd 94f0 08be b132 6e3e fd9c ee3d
000002b0: 7046 223e 1da2 363d 76f5 82be 7297 cabc
000002c0: fad8 273e e29c 0e3e 5f6d 423e 7683 01bd
000002d0: 1735 b0bd 052a 37be f3c6 3bbe 930b 7e3e
000002e0: bc5f 56be a90c 42be 020d cb3d 4afe 07be
000002f0: 2ae2 c03d 5ff1 f7bd 0216 a3be cd28 bb3c
00000300: 1fff 7e3e a865 a93e e7de 3b3e 3afe 4ebe
00000310: e6be 2f3e 00e2 b93d 817e 953e 1fb5 873c
00000320: 050a 07be 96ce 733d 881a 3f3e cab7 063e
00000330: 107a 91be 3b84 933e 725a 1e3e 5fe2 763e
00000340: 73af dabd 6545 6ebe d3f9 0ebe 356b 693e
00000350: 81d2 47bd 5fbc 5c3d 2d81 013e e9eb 05be
00000360: 6446 413e 509c 55be 303b c73c d997 e33d
00000370: 4726 9b3e d171 9e3e 452c 4f3c 5d45 933e
00000380: 1f11 633e 1ccf ab3d 4355 533e a317 743e
00000390: e230 e53d 0177 9d3d bd30 ea3d 41a6 83bd
000003a0: ae85 003e 1630 87be abdd ad3d e01d 65bd
000003b0: ee9d 503e 700f 57be a284 8e3d db32 25be
000003c0: 1f85 9ebd 6418 7e3e 090c 133e 3415 6c3d
000003d0: db7c abbd 64ca 35be 83f5 36be 3cc2 253e
000003e0: 3929 f33d c88a 94be 6a18 8c3e f001 a03d
000003f0: 882d 42be b43f 9b3e 2fa8 4fbe c08a 643e
0.008267652 -0.15970154 -0.13770396 -0.1497446 0.11694282 0.152794 0.2761217 0.20325693
0.11423527 -0.19615515 0.21956034 0.24790761 -0.061235208 -0.16895188 -0.28491572 0.001954381
-0.2242815 -0.16892664 -0.015971094 0.2385081 -0.24053644 -0.02684741 -0.02740895 0.034025162
0.22869898 0.093992166 0.0676572 0.2648623 -0.017060617 0.16923796 -0.008639634 -0.2771863
-0.25268883 0.0784341 0.0571895 0.17155938 -0.25928473 0.13337933 0.0041962834 -0.051717464
0.1216548 0.25154868 0.20390199 0.22903833 0.06861538 0.014175188 -0.27272078 -0.007384929
0.035606448 0.28098086 -0.17342174 0.21276148 0.12616651 -0.027449522 0.30760646 0.17591894
-0.16301094 0.299877 0.20450464 -0.20901841 0.10006561 0.054600507 0.0466652 -0.08651394
-0.2187562 -0.22889026 0.07133051 -0.055690978 0.050368644 0.14029136 0.2962559 -0.15612294
0.074085906 -0.29304624 0.16153197 -0.24595731 0.121267304 -0.045754552 -0.13834852 0.13841407
0.15177926 -0.13110344 -0.10542042 -0.16640313 -0.085409015 -0.28154826 -0.17494746 0.055505555
-0.12622897 0.07779564 -0.26550806 0.072468854 0.07942675 -0.0013826444 -0.19502398 -0.008364795
0.248502 0.28519773 -0.2005075 -0.1844242 0.12913212 -0.072658435 -0.18550771 -0.2612088
0.24452522 0.16689374 0.02105665 -0.03063211 0.16240865 0.21676849 0.12453387 -0.080517314
0.123342276 -0.0083032595 -0.21474509 0.11279977 0.09855974 0.03470539 -0.00054370763 0.17010486
0.12275835 0.05370374 0.21920757 -0.18745644 -0.22315964 0.24600543 0.30783352 0.2747173
-0.181912 -0.28888458 -0.042674117 -0.06745732 -0.2422724 -0.09085369 -0.3012015 -0.23193562
-0.12703465 -0.22652988 -0.13921429 -0.03697277 0.06855556 -0.27221936 0.18165375 0.17831716
0.17186064 -0.054730296 -0.10297465 0.21230057 -0.020974798 0.028623898 0.04485184 -0.27913418
0.22264831 0.10527992 -0.22350323 0.2829951 -0.22999536 0.15839048 -0.16332926 0.15215038
-0.107881024 -0.2957971 0.2488502 0.040716577 -0.25188217 -0.25418162 -0.16126415 0.1732039
-0.08295812 -0.13373023 0.23261525 0.11651037 0.15847182 0.044588197 -0.25577897 -0.024730418
0.16391364 0.13927034 0.18987034 -0.03161951 -0.08603876 -0.17887123 -0.18337612 0.24809103
-0.20934957 -0.18950142 0.099145904 -0.13280597 0.09418137 -0.12106585 -0.31852728 0.022846604
0.24902008 0.3308537 0.18346749 -0.20214167 0.17162666 0.09076309 0.29198077 0.016565857
-0.13187416 0.059523188 0.18662465 0.13156047 -0.2841344 0.2881182 0.1546419 0.24109791
-0.106779955 -0.2326866 -0.13962488 0.22794802 -0.048784737 0.053890582 0.12646933 -0.13078274
0.18874508 -0.2086041 0.024320215 0.11112947 0.3030264 0.3094621 0.012644832 0.28763857
0.221745 0.08389112 0.20637994 0.23837142 0.11190964 0.07688714 0.11435077 -0.06428195
0.12550995 -0.26403874 0.084895454 -0.055936694 0.20372745 -0.21001983 0.069588915 -0.16132681
-0.077402346 0.24813992 0.1436006 0.05763741 -0.08373424 -0.17752987 -0.17867093 0.16187376
0.11873097 -0.29012132 0.27362376 0.078128695 -0.18962681 0.3032204 -0.20279 0.22318554

model/conv2d_3/Conv2D f4 [16]
00000000: 0000 0000 0000 0000 0000 0000 0000 0000
00000010: 0000 0000 0000 0000 0000 0000 0000 0000
00000020: 0000 0000 0000 0000 0000 0000 0000 0000
00000030: 0000 0000 0000 0000 0000 0000 0000 0000
0.0 0.0 0.0 0.0 0.0 0.0 0.0 0.0
0.0 0.0 0.0 0.0 0.0 0.0 0.0 0.0
